model_b/cnn_large.pth (torch, 424489 bytes, 8 tensors)

conv1.weight f4 [32, 1, 3, 3]
0	0x3e013d1c	0.12620968
1	0xbe0b0585	-0.13576324
2	0xbe0683f8	-0.1313628
3	0x3d523846	0.051323198
4	0xbe25e46d	-0.16200419
5	0xbe9c0011	-0.304688
6	0x3d8bc343	0.068243526
7	0x3e45c5c4	0.19313723
8	0x3cdb6ed3	0.026786244
9	0x3cec2220	0.028824866
10	0xbe962879	-0.29327753
11	0x3db2d1c0	0.08731413
12	0x3e43e91e	0.19131896
13	0x3e2c5654	0.16829807
14	0xbe8c623d	-0.274187
15	0xbe26ebd1	-0.16300894
16	0xbe863122	-0.2620936
17	0x3de49ad5	0.11162344
18	0xbdb9354d	-0.090433694
19	0xbe67bfa4	-0.22631699
20	0xbe8eff6a	-0.2792924
21	0x3d8b3d70	0.06798828
22	0x3df84e02	0.12124254
23	0xbe3ad45d	-0.18245073
24	0xbd92eb53	-0.07173791
25	0xbe8fa9b2	-0.28059155
26	0xbd8c8859	-0.06861944
27	0xbe8a8d68	-0.2706101
28	0xbde5b3e6	-0.112159535
29	0xbe86f947	-0.2636206
30	0x3e0aefa2	0.13567975
31	0xbe17a1b0	-0.14807773
32	0xbe9637fb	-0.29339585
33	0x3e6d3ab8	0.2316693
34	0x3dc53a5f	0.09630274
35	0xbdd93dee	-0.10607515
36	0xbe323ed2	-0.17406777
37	0x3e934785	0.28765503
38	0x3e3436de	0.17599055
39	0xbe60ae3c	-0.21941465
40	0xbe4e81de	-0.20166728
41	0xbe587964	-0.21140057
42	0x3e376daa	0.17912927
43	0xbe313791	-0.17306353
44	0x3e3c6e4c	0.1840145
45	0xbe617e7f	-0.2202091
46	0x3da048d3	0.0782639
47	0xbea4d00e	-0.32189983
48	0x3e97c14c	0.2963966
49	0x3e5ceb56	0.21574149
50	0x3dc54061	0.0963142
51	0x3d44633a	0.047946192
52	0x3d70fe92	0.058836527
53	0xbcb8917b	-0.022530308
54	0x3e843daf	0.2582831
55	0x3dcbc887	0.09950357
56	0xbea2ae50	-0.31773615
57	0x3e08f372	0.13374117
58	0x3e9f4f39	0.3111513
59	0x3e926e46	0.28599757
60	0xbd807791	-0.062728055
61	0xbd56e040	-0.052459955
62	0xbe8e1dbd	-0.27757064
63	0x3e6d7257	0.23188148
64	0x3e781127	0.24225293
65	0x3d6f8f04	0.058486
66	0x3e0d89f2	0.13822153
67	0xbdbe9b88	-0.09307009
68	0x3e9398ff	0.28827664
69	0x3ea4e55b	0.32206234
70	0xbcdcb8c0	-0.026943564
71	0xbe49daf6	-0.19712433
72	0x3cb3e97c	0.02196192
73	0xbd4eef4c	-0.05052118
74	0xbe97db4f	-0.29659507
75	0xbe7d8638	-0.24758232
76	0x3e7c1806	0.24618539
77	0x3e7124fc	0.23549265
78	0x3ca4069c	0.020022683
79	0xbe4c4801	-0.19949342
80	0xbdf778a5	-0.12083558
81	0xbdd95612	-0.1061212
82	0x3e8b15ab	0.2716497
83	0xbea1bbab	-0.31588492
84	0xbdd9a784	-0.10627654
85	0xbe9722b3	-0.2951866
86	0xbe18cbfc	-0.14921564
87	0x3c0b9a88	0.00852073
88	0x3e1a1ec4	0.15050799
89	0x3d9c35a0	0.07627416
90	0x3ea88e39	0.32921007
91	0x3d45a86d	0.048256326
92	0x3ea647ca	0.32476646
93	0x3e5f5318	0.21809042
94	0x3e108f93	0.14117269
95	0xbe09dd9a	-0.1346344
96	0xbe893c00	-0.2680359
97	0x3e943974	0.28950083
98	0x3c584083	0.013198975
99	0x3db20e9c	0.08694193
100	0x3e2adcd2	0.16685799
101	0xbe229b25	-0.15879495
102	0x3e24a3b5	0.16078074
103	0xbc441295	-0.011967321
104	0xbe51a65c	-0.20473617
105	0x3e386b3d	0.18009658
106	0xbdba5c30	-0.090996146
107	0xbe41517f	-0.18878745
108	0xbdd5ee0c	-0.104457945
109	0xbd9c7191	-0.076388486
110	0xbe35f97e	-0.17770955
111	0xbe8e565f	-0.2780027
112	0xbe0c24e5	-0.13685949
113	0xbdc3d67f	-0.09562396
114	0x3e370e74	0.17876607
115	0xbe100085	-0.14062698
116	0xbd077dc7	-0.033078935
117	0x3db23f71	0.08703507
118	0x3e995efc	0.2995528
119	0xbea2fcb9	-0.31833437
120	0xbe6a85b6	-0.22902569
121	0xbde753af	-0.11295258
122	0x3db42e45	0.08797888
123	0xbc4ce73b	-0.0125063015
124	0x3e85627f	0.2605171
125	0x3e0da270	0.13831496
126	0x3ea45abe	0.3210048
127	0xbea359d4	-0.3190447
128	0x3b9958ed	0.00467979
129	0x3dd8feb5	0.105954565
130	0x3e0bb8ea	0.13644758
131	0xbdb89a89	-0.0901385
132	0xbea5d6f1	-0.3239055
133	0xbdd15725	-0.102216996
134	0x3d276f63	0.04087771
135	0x3d054e29	0.032545242
136	0xbd11744a	-0.035511293
137	0x3e8cdeeb	0.27513823
138	0x3ea5838e	0.3232693
139	0x3ccb4349	0.024812358
140	0xbe2a4d20	-0.16630983
141	0x3e789c23	0.24278311
142	0xbea59fb4	-0.32348406
143	0x3e5d40bb	0.21606724
144	0x3e56607f	0.20935248
145	0xbea4c733	-0.32183227
146	0x3e59cec4	0.21270281
147	0x3de43386	0.1114264
148	0x3e681f43	0.22668175
149	0xbe565e5f	-0.20934437
150	0x3e8511c4	0.25990117
151	0x3dfd6d89	0.12374408
152	0x3d83d742	0.064375415
153	0x3e643646	0.22286329
154	0x3dacecdb	0.08443614
155	0xbd11301d	-0.035446275
156	0xbdf21066	-0.11819534
157	0xbcfbe04f	-0.030746607
158	0x3d8164ac	0.0631803
159	0xbdd6efef	-0.104949825
160	0x3e3953f6	0.18098435
161	0xbe601456	-0.21882758
162	0xbe8e3659	-0.2777584
163	0x3dfdcf9e	0.123931155
164	0xbc5f0ffb	-0.01361465
165	0x3e40f046	0.18841657
166	0x3ea3be77	0.3198125
167	0x3d036724	0.032080784
168	0x3e5499d9	0.20761813
169	0x3d0ac49c	0.033878908
170	0xbe761f2b	-0.24035327
171	0xbea0dae2	-0.31416994
172	0xbe05883e	-0.13040254
173	0xbe3b2511	-0.18275858
174	0xbd9f4be4	-0.07778147
175	0x3e3855ae	0.18001434
176	0x3d0b252a	0.03397099
177	0x3e8a9292	0.2706495
178	0xbe1ae960	-0.15128088
179	0xbe842e8e	-0.25816768
180	0x3db0c704	0.08631709
181	0x3e849096	0.2589156
182	0x3dfdfe4e	0.124020204
183	0x3d704806	0.058662437
184	0xbe83f1ae	-0.25770324
185	0x3d917b90	0.07103646
186	0xbde180c2	-0.11010887
187	0xbd8af767	-0.067854695
188	0x3e954305	0.29152694
189	0x3e9d7a5f	0.30757424
190	0x3ea031f6	0.31288117
191	0x3e69bdcc	0.22826308
192	0x3e0280a6	0.12744388
193	0x3cd1aac3	0.02559412
194	0x3e9de4c1	0.30838588
195	0xbe4f5283	-0.2024632
196	0x3e9e8181	0.3095818
197	0xbe8229d1	-0.25422528
198	0x3ea64be0	0.32479763
199	0x3e6468b7	0.2230557
200	0x3ea2a51c	0.31766593
201	0x3e3a7d21	0.18211795
202	0xbca8c2ee	-0.020600762
203	0xbe22ec7b	-0.15910523
204	0xbe8b8374	-0.27248728
205	0x3da7e63c	0.081982106
206	0x3e5687ae	0.20950195
207	0xbe34e19e	-0.17664191
208	0xbe3e32e4	-0.185741
209	0x3e6b51ac	0.22980374
210	0x3e894ce8	0.26816487
211	0xbe9f9517	-0.31168434
212	0x3e4408d0	0.19143987
213	0xbe1cafc9	-0.15301432
214	0x3de6f9a6	0.112780854
215	0xbe281547	-0.16414367
216	0x3ea8d937	0.32978222
217	0xbe63d723	-0.22250037
218	0x3dff43f9	0.12464137
219	0x3c497752	0.012296515
220	0x3e25a785	0.16177185
221	0xbe589eeb	-0.21154372
222	0x3e3d1a23	0.18467002
223	0x3d300331	0.042971794
224	0x3e0b2666	0.13588867
225	0xbdbdde06	-0.09270863
226	0xbe99b80a	-0.30023223
227	0x3cb61051	0.022224577
228	0xbe7e9f77	-0.24865519
229	0x3e8899d0	0.2667985
230	0x3e79ceff	0.24395369
231	0xbcdd86b1	-0.027041765
232	0xbe968025	-0.29394642
233	0x3e8017b3	0.2501808
234	0x3e8a4a8c	0.2701
235	0xbcab2334	-0.02089081
236	0x3db25d9e	0.08709262
237	0x3d803679	0.0626039
238	0xbe605e0c	-0.21910876
239	0xbe780435	-0.24220355
240	0xbe298e3f	-0.16558169
241	0x3e3ee089	0.18640341
242	0xbde5dc3c	-0.11223647
243	0xbe7ece57	-0.248834
244	0x3e7be096	0.24597391
245	0xbe818911	-0.25299886
246	0xbdd65c5a	-0.104668334
247	0xbe0cd8d5	-0.1375459
248	0xbcfb477f	-0.03067374
249	0x3d9590bf	0.07302999
250	0x3d30d47d	0.043171395
251	0x3cfe2f9c	0.031028561
252	0x3e32f640	0.1747675
253	0xbe5e5000	-0.21710205
254	0xbe9b7cd0	-0.30368662
255	0x3e12064f	0.14260219

conv1.bias f4 [32]
0	0x3e7c023e	0.2461023
1	0xbda5a006	-0.08087163
2	0x3e8fddd4	0.2809893
3	0x3e52ee46	0.20598707
4	0x3e087e20	0.13329363
5	0x3e5c37db	0.21505682
6	0x3e7c7e71	0.24657609
7	0xbe9cc7c6	-0.30621165
8	0xbcf276af	-0.029597608
9	0x3e6aa5a1	0.22914745
10	0xbe939f37	-0.2883241
11	0x3e977497	0.29581138
12	0x3e21013f	0.15723132
13	0x3a9cf83f	0.0011975839
14	0xbd75f7eb	-0.060050886
15	0xbdac9ea3	-0.08428695
16	0x3e8cfa50	0.27534723
17	0xbdf1b469	-0.11801989
18	0xbde9da8f	-0.1141864
19	0x3eaa0880	0.3320961
20	0xbe3a5ab5	-0.18198664
21	0xbea35e3b	-0.3190783
22	0x3e62ea5d	0.22159715
23	0xba884085	-0.0010395205
24	0x3e020b6a	0.12699667
25	0x3db5418b	0.08850392
26	0xbd40e6e2	-0.047095187
27	0x3dec3ad2	0.115346566
28	0x3e2b6128	0.16736281
29	0xbd78bfd5	-0.06072982
30	0xbe2dc02b	-0.16967838
31	0x3e94c3ee	0.29055732

conv2.weight f4 [64, 32, 3, 3]
0	0x3bea7857	0.007155459
1	0x3ce444c8	0.027864829
2	0x3cf3eddd	0.029776508
3	0x3d3325b9	0.043737147
4	0x3d6142c0	0.0549953
5	0x3d59a0a1	0.053131703
6	0xbc763e71	-0.015029536
7	0x3b896cb9	0.004193869
8	0x3d483609	0.048879657
9	0xbcc0311a	-0.023460913
10	0xbcc4dbac	-0.024030529
11	0x3c904d78	0.017615065
12	0x3c879a32	0.016553018
13	0xbcd8102c	-0.026374899
14	0x3b4bacbe	0.0031078304
15	0x3d1677c6	0.03673532
16	0x3d2469d5	0.04013999
17	0x3d1db7d4	0.03850539
18	0x3c1989ee	0.009371264
19	0xbcb81ef6	-0.0224757
20	0x3d5db7bd	0.054130305
21	0xbce754c0	-0.028238654
22	0x3d2264b6	0.039646827
23	0x3cbb07b0	0.022830814
24	0x3d59ebb0	0.053203285
25	0x3c892f1d	0.016746098
26	0xbd6ee7a8	-0.058326393
27	0xbd6427c9	-0.055702005
28	0x3b5dc689	0.003384026
29	0x39de2685	0.0004237184
30	0xbc88b9f6	-0.016690236
31	0xbd190629	-0.03735939
32	0x3afe221c	0.0019388827
33	0xbca8a2ef	-0.020585505
34	0x3c88f73b	0.016719451
35	0x3b1e1984	0.0024124095
36	0x3d33771e	0.04381477
37	0x3c0d616b	0.008629183
38	0x3cf7ff1a	0.03027301
39	0x3ccb9724	0.024852343
40	0xbc7d7f2b	-0.015472214
41	0xbc983106	-0.018578064
42	0x3b1342a4	0.002247014
43	0x3d4a4443	0.049381506
44	0x3d1a90c6	0.037735723
45	0xbc55577f	-0.013021349
46	0xbc8653bb	-0.016397348
47	0x3ca94270	0.020661563
48	0xbd42b935	-0.04753991
49	0x3cf1caf2	0.029515717
50	0x3d3de7f0	0.04636377
51	0xbbd3b69f	-0.006460979
52	0xbb94d6d1	-0.0045422097
53	0x3c21d9e0	0.009878606
54	0x3d5e88d4	0.05432971
55	0x3d197b7e	0.037471287
56	0xbcca81f8	-0.024720177
57	0xbd11980f	-0.035545405
58	0x3c166a22	0.0091805775
59	0x3cd10f56	0.025520008
60	0x3c40b01c	0.011760738
61	0x3c1fb819	0.009748482
62	0xbd58a865	-0.05289497
63	0x3d56afaa	0.05241362
64	0xbd2ca360	-0.042147994
65	0x3ca4c2f3	0.02011249
66	0xbd55206a	-0.052032866
67	0x3d1e505d	0.03865086
68	0x3c945658	0.018107578
69	0x3c9b8eb0	0.018988937
70	0x3d3d1a8a	0.046167888
71	0xbd0dcb5e	-0.034617774
72	0xbcc04ff7	-0.02347563
73	0xbd439eea	-0.047758974
74	0xbd5ec65d	-0.054388393
75	0xbd596bb5	-0.053081233
76	0x3c020c9d	0.007937578
77	0x3ca03085	0.019554386
78	0xbd489dc7	-0.048978593
79	0x3c053b8e	0.008131875
80	0x3bd76979	0.0065738526
81	0xbd3f0501	-0.04663563
82	0xbcd869ec	-0.026417695
83	0x3d5c3a24	0.053766385
84	0xbd1d8aa1	-0.038462285
85	0x3d5b0627	0.053472664
86	0xbd570790	-0.052497447
87	0xbc693e73	-0.01423608
88	0xbc95cde9	-0.018286662
89	0xbbeadd44	-0.00716749
90	0x3d5286e8	0.051398188
91	0x3d0ca263	0.03433455
92	0x3d235d29	0.039883766
93	0x3d616f0a	0.055037536
94	0xbd4dd096	-0.05024775
95	0xbbcbf66a	-0.006224443
96	0xbd4cabd5	-0.04996856
97	0xbcb6cf49	-0.022315638
98	0xbc24a945	-0.010050123
99	0x3ccae17c	0.024765722
100	0xbc6bdde3	-0.014396164
101	0xbd0a3e03	-0.033750545
102	0xbcc08d8d	-0.023504997
103	0xbb9de7c5	-0.004818889
104	0xbd5465b4	-0.051854804
105	0xba7453a4	-0.0009320325
106	0xbcf7a2c8	-0.030228987
107	0xbd12428d	-0.035708
108	0xbd58aa09	-0.052896533
109	0x3c28b8d8	0.010297976
110	0xbd188a5f	-0.037241336
111	0x3d137221	0.035997514
112	0xbca6a6fa	-0.020343293
113	0x3d2a13bd	0.04152273
114	0x39adb30c	0.00033130532
115	0xbc035c28	-0.008017577
116	0xbd269ccf	-0.040676888
117	0x3d3c8116	0.046021543
118	0xbce8ccc8	-0.02841796
119	0x3c826aa1	0.015919985
120	0xbab8dbdb	-0.0014103608
121	0xbcef489e	-0.029209431
122	0xbd532e60	-0.0515579
123	0xbba3c6f9	-0.0049980846
124	0x3d13e982	0.036111362
125	0xbca5e0e4	-0.020248838
126	0xbc989c40	-0.018629193
127	0xbae59736	-0.0017516378
128	0x3bb9827d	0.0056613074
129	0xbd36444a	-0.04449872
130	0x3d489261	0.048967723
131	0xbd1b1aea	-0.037867464
132	0x3cd462f8	0.025926098
133	0x3cf7476a	0.03018542
134	0xbcf43a17	-0.029812856
135	0xbafd6c4d	-0.0019334644
136	0xbd3bf987	-0.045892265
137	0xbc8b030d	-0.016969228
138	0xbc9925be	-0.018694755
139	0xbd79b77b	-0.060965996
140	0x3c1871dc	0.00930449
141	0x3baebd14	0.0053325985
142	0x3ccf8839	0.02533351
143	0xbd594d6f	-0.053052362
144	0x3a563182	0.00081708294
145	0xbd4b1264	-0.049578086
146	0xbd684724	-0.05670847
147	0x3ce21584	0.02759815
148	0x3d3b6d64	0.04575862
149	0x3cc90aee	0.024541344
150	0xbd057176	-0.032578908
151	0xbd4379f1	-0.047723714
152	0x3d4dacd2	0.050213642
153	0xbae0586c	-0.0017116196
154	0x3c356c16	0.011073133
155	0xbc10d014	-0.008838672
156	0xbd598800	-0.053108215
157	0xbd466144	-0.048432603
158	0x3d3ad01d	0.04560863
159	0xbc86a3fd	-0.016435618
160	0xbd3b4013	-0.045715403
161	0x3cb677ef	0.022273986
162	0xbd2ab0e8	-0.041672617
163	0x3d5048b2	0.050850578
164	0x3c70fa9a	0.014708186
165	0xbc92b29e	-0.017907437
166	0xbd32e363	-0.043673884
167	0xbbd5e75b	-0.006527824
168	0x3cc1a044	0.02363599
169	0x3d2beff7	0.041976895
170	0xbc2afa48	-0.010435648
171	0xbd1bbaa7	-0.038019802
172	0xbd1b271a	-0.037879087
173	0xbb1615ca	-0.002290117
174	0x3d64d0f1	0.055863325
175	0x3c27c3ed	0.010239583
176	0xbd20e11f	-0.039277192
177	0xbd14ccc5	-0.036328096
178	0x3cff9bec	0.031202279
179	0xbd149b71	-0.036281053
180	0xbc364c6a	-0.011126617
181	0x3d738318	0.059451193
182	0x3d5310d9	0.05152974
183	0x3d736839	0.059425566
184	0xbbebc53e	-0.007195144
185	0xbca65f47	-0.020309104
186	0x3d05a67f	0.032629486
187	0x3c374bf6	0.011187544
188	0x3d66b647	0.056326177
189	0xbca20059	-0.019775556
190	0xbcb823f1	-0.022478076
191	0x3cf6c646	0.030123841
192	0xbccda07f	-0.025100945
193	0xbcd4fa9b	-0.025998404
194	0xbb2832e2	-0.0025665094
195	0x3d378306	0.044802688
196	0x3cab669b	0.02092295
197	0xbc7d9f9e	-0.01547995
198	0xbc94257f	-0.018084286
199	0x3ccb45ce	0.024813559
200	0xbd787f08	-0.06066802
201	0x3be9ba68	0.007132817
202	0xbced5cd3	-0.028974926
203	0xbca3bfe1	-0.019988956
204	0x3d26b8a5	0.040703434
205	0xbba10fe4	-0.0049152244
206	0xbcc25b10	-0.023725063
207	0xbaf330a4	-0.0018553925
208	0xbca96df2	-0.020682309
209	0x3d303499	0.04301891
210	0xbd1f4d6d	-0.0388922
211	0xbd5fdeac	-0.054655716
212	0xbc84b221	-0.01619822
213	0x3d4dffca	0.050292768
214	0xbcd5c6f2	-0.026095841
215	0xbd1209af	-0.035653766
216	0xbd09d5ea	-0.03365127
217	0x3cd019a4	0.025402851
218	0x3c01f79c	0.00793257
219	0x3d65d874	0.05611463
220	0xbcb64c44	-0.022253163
221	0xbc2004bc	-0.009766754
222	0x3d2ad1a6	0.041703843
223	0x3c8046bd	0.01565873
224	0x3c9bbf7f	0.01901221
225	0x3c7e0766	0.015504694
226	0xbd1de576	-0.03854891
227	0xbcae8a5c	-0.02130621
228	0xbd3114c8	-0.04323271
229	0x3c420ab2	0.01184337
230	0x3cb2e657	0.02183835
231	0x3d373b35	0.0447342
232	0xbce9dba8	-0.028547123
233	0xbd3d8090	-0.046265185
234	0xbc8ab515	-0.01693205
235	0x3cafdb65	0.02146692
236	0x3c8bfd7a	0.01708864
237	0xbcb6a229	-0.02229412
238	0x3ccba5e0	0.024859369
239	0xbbe59a27	-0.007006902
240	0xbca5ee30	-0.020255178
241	0x3d3fd046	0.046829484
242	0xbc8d15a8	-0.01722224
243	0x3cb89c55	0.022535482
244	0xbd27e2b3	-0.04098768
245	0x3d4d9f16	0.050200544
246	0xbcf887fc	-0.03033828
247	0xbbef34ed	-0.0073000104
248	0x3d1c44e9	0.038151655
249	0xbd2a36ef	-0.041556295
250	0xbd241f65	-0.040069003
251	0x3cbc0ce3	0.022955364
252	0x3d2b557b	0.041829567
253	0x3a46cbec	0.00075834873
254	0x3d5e9917	0.054345217
255	0xbd1cf180	-0.03831625

conv2.bias f4 [64]
0	0xbd697c84	-0.057003513
1	0xbc6b9135	-0.014377882
2	0x3ce8f48a	0.028436918
3	0x3d155046	0.036453508
4	0xbd7144c1	-0.05890346
5	0xbcf8a351	-0.030351313
6	0xbd364fa8	-0.04450956
7	0xbc847562	-0.016169254
8	0x3d25033c	0.040286288
9	0xbc743a9b	-0.014906551
10	0x3d13640e	0.03598409
11	0xbcf3742e	-0.029718485
12	0x3ca09c4d	0.01960578
13	0x3cff0b11	0.031133207
14	0x3d16c3d1	0.03680784
15	0xbce22553	-0.027605688
16	0x3d45dcd1	0.04830629
17	0xbd02b9e7	-0.03191557
18	0x3d35fb89	0.044429336
19	0x3d0b78cd	0.03405075
20	0x3c24a9b5	0.010050227
21	0xbd4476ee	-0.047964983
22	0xbc9a313b	-0.018822303
23	0xbd094960	-0.03351724
24	0x3d357fc9	0.04431132
25	0x3bc59be2	0.0060305456
26	0x3d162a33	0.036661338
27	0x3d392a77	0.045206513
28	0xbc0321e7	-0.008003688
29	0xbcb8dc6e	-0.022566047
30	0x3ce5e46f	0.028063027
31	0xbcbf0e6c	-0.023322307
32	0x3c7196e8	0.0147454515
33	0x3ce9fee4	0.028563924
34	0xbd4223ac	-0.0473973
35	0x3c8f231a	0.017472792
36	0x3cd56070	0.026046962
37	0x3d60640d	0.054782916
38	0xbbfaecb4	-0.0076576117
39	0xbc136f96	-0.008998772
40	0xbca8b83e	-0.020595666
41	0x3d561c9a	0.05227337
42	0x3c95d6b8	0.018290862
43	0x3ca67b83	0.020322567
44	0x3d017cf2	0.031613298
45	0xbc06f8a3	-0.008237991
46	0x3d0fca68	0.03510514
47	0xbd12042c	-0.03564851
48	0x3d6f9862	0.058494933
49	0x3cfc2630	0.030779928
50	0x3a27eec9	0.0006406126
51	0xbd77398f	-0.060357627
52	0xbd02bae3	-0.03191651
53	0x3d280339	0.0410187
54	0xbbdbf6fd	-0.006712793
55	0xbc99a63a	-0.01875602
56	0x3cfa34a2	0.030542675
57	0xbcf2e993	-0.029652392
58	0x3bc74a43	0.0060818507
59	0xbb965ddc	-0.0045888256
60	0x3ccfc428	0.02536209
61	0xbd2b2b5d	-0.0417894
62	0xbc7bfa90	-0.015379563
63	0x3c462e70	0.0120960325

conv3.weight f4 [128, 64, 3, 3]
0	0x3b98a30b	0.004658108
1	0xbca6560b	-0.0203047
2	0x3b4d05c0	0.0031283945
3	0xbcf436fd	-0.029811377
4	0x3cdb88d8	0.02679865
5	0xbd31954c	-0.04335527
6	0x3bb5fe56	0.005554001
7	0xbb235f5f	-0.0024928672
8	0xbbba1cd2	-0.005679705
9	0x3c644696	0.013932845
10	0x3d0864ac	0.033299133
11	0x3adcf900	0.0016858876
12	0x3c81c789	0.015842216
13	0x3c6ac666	0.014329528
14	0xbc927cf1	-0.017881842
15	0x3aed86c0	0.0018121824
16	0xbc9f2671	-0.01942751
17	0xbc5ab956	-0.013349852
18	0xbbe278ab	-0.0069113574
19	0xbd08990c	-0.033349082
20	0x3a486356	0.0007644197
21	0x3cbde17b	0.023178807
22	0x3bccd869	0.006251384
23	0x3c9d5c40	0.019209027
24	0xbc93494a	-0.017979283
25	0xbc00a5f6	-0.007852068
26	0x3c8fecc6	0.017568957
27	0xbd15d468	-0.03657952
28	0x3cc0c348	0.023530617
29	0xbb4318eb	-0.002976949
30	0x3b8639f7	0.0040962654
31	0x3cf6bdb0	0.030119747
32	0xbd0bf9a9	-0.03417364
33	0xbd1f337c	-0.03886746
34	0x3c3d9488	0.011571057
35	0xbd22ffc8	-0.039794713
36	0x3ca23483	0.01980043
37	0xbd0fb962	-0.035088904
38	0x3c2fa74b	0.010721038
39	0x3cbf6e4c	0.023368023
40	0x3c0d0924	0.008608136
41	0xbd2b31da	-0.04179559
42	0x3b3e99d9	0.00290834
43	0xbcf4a3ab	-0.0298632
44	0x3c9200b1	0.017822595
45	0xbce9375b	-0.028468778
46	0xbbdcf416	-0.0067429645
47	0x3c726d50	0.01479657
48	0xbd391cbb	-0.045193415
49	0xbd145649	-0.0362151
50	0xbc37f8f7	-0.011228791
51	0xbd23aeb1	-0.03996152
52	0x3c813162	0.015770618
53	0x3d20a47b	0.03921936
54	0x3b81bc6b	0.0039592288
55	0x3c93dd73	0.018049931
56	0xbb670a6b	-0.0035254012
57	0xbd14fe87	-0.03637555
58	0xbcdac65b	-0.026705911
59	0xbcd82430	-0.026384443
60	0x3b1709d6	0.0023046634
61	0xbcd01f30	-0.025405496
62	0x3d1cdb38	0.038295
63	0x399c2400	0.0002978146
64	0xbc250016	-0.010070821
65	0x3beef420	0.0072922856
66	0x3c455730	0.012044713
67	0x3b2f7539	0.002677275
68	0xbd12d0c3	-0.035843622
69	0xbc172e70	-0.00922738
70	0x3ca18c10	0.019720107
71	0x3ca12dc0	0.019675136
72	0x3d1b584a	0.037925996
73	0xbac25880	-0.00148274
74	0xbcff4f76	-0.03116582
75	0xbb527851	-0.0032115171
76	0x3c5f364a	0.013623783
77	0x3c884cab	0.01663812
78	0xbcd24c37	-0.025671108
79	0xbbeb919f	-0.0071889902
80	0x3cffc8f0	0.031223744
81	0xbd0f7307	-0.035021808
82	0xbc910388	-0.01770188
83	0xbc171f86	-0.009223824
84	0xbc135bd6	-0.008994063
85	0x3c8fc4e9	0.017549949
86	0xbc629d4b	-0.013831447
87	0xba72b6a5	-0.00092587835
88	0x3b927fd6	0.0044708056
89	0xbc0650f8	-0.008198015
90	0x3ce1a880	0.027546167
91	0xbcaa08bb	-0.020756116
92	0x3cfe9dd6	0.031081121
93	0xbd37bce1	-0.044857863
94	0x3cb96a4f	0.0226337
95	0xbd13d39b	-0.036090475
96	0xbd109914	-0.035302237
97	0x3cee7a88	0.029111162
98	0xbc27ef98	-0.010249995
99	0x3b74adab	0.003733496
100	0x3b8e0b00	0.0043348074
101	0x3c7cc700	0.015428305
102	0xb865516c	-5.4673685e-05
103	0x3bad0d97	0.005281161
104	0xbc9e7746	-0.019343983
105	0xbcee2f90	-0.029075414
106	0xbc970e36	-0.018439393
107	0x3aa5b756	0.0012643139
108	0x3d1cece8	0.03831187
109	0xbc067666	-0.008206939
110	0x3d1cede3	0.038312804
111	0x3bd13daa	0.0063855248
112	0x3d303310	0.043017447
113	0x3c9fb77b	0.01949667
114	0xbd2825c1	-0.04105163
115	0xbc81ff33	-0.015868759
116	0x3d19fb7e	0.037593357
117	0xbcc1809e	-0.0236209
118	0x3b15d0c0	0.002286002
119	0x3b9a7f40	0.0047148764
120	0x3d0ee255	0.034883816
121	0xbc616da3	-0.01375905
122	0xbc96a571	-0.018389435
123	0xbd1ee4e5	-0.03879251
124	0xbd2c73d2	-0.042102642
125	0xbcceed4c	-0.025259636
126	0x3cdf8c1b	0.027288487
127	0x3bd06e2b	0.0063607893
128	0xba1f6056	-0.0006079724
129	0x3cb8cdf1	0.022559138
130	0x3ca82a42	0.020527963
131	0xbaa9760d	-0.0012928859
132	0xbc65f252	-0.014034824
133	0xbd04c7a6	-0.032416962
134	0xbc4f89ff	-0.012667178
135	0x3c36ee96	0.011165282
136	0xbcff29c3	-0.031147843
137	0xbd2159b8	-0.039392203
138	0xbca8d248	-0.020608082
139	0x3ccde69e	0.02513438
140	0xbca0a2bb	-0.019608846
141	0xbafd62d6	-0.0019331824
142	0x3d227012	0.03965766
143	0x3af67f2b	0.001880621
144	0xbc55a6d6	-0.013040265
145	0x3c95446e	0.018221106
146	0xbc9bca36	-0.01901732
147	0xbd0a943a	-0.033832766
148	0x3bd7331c	0.006567372
149	0x3ce23de9	0.027617412
150	0x3c85cf02	0.01633406
151	0xbce1f516	-0.027582686
152	0xbcb322c2	-0.02186716
153	0xbceb6153	-0.028732931
154	0xbcd5071b	-0.026004365
155	0x3c8fb203	0.017540937
156	0xbcd7b50e	-0.02633145
157	0x3bbe72cf	0.005812026
158	0x3c8bb705	0.017055044
159	0xbce4b14e	-0.027916577
160	0x3d063d7b	0.032773476
161	0x3b9773d6	0.004621963
162	0xbb4d5b00	-0.0031334758
163	0xbd0c38b8	-0.03423378
164	0xbcc2f413	-0.023798024
165	0xbcbe363f	-0.023219226
166	0x3cafb3f6	0.021448117
167	0xbcf12289	-0.029435413
168	0xbd08a89a	-0.033363916
169	0xbd395159	-0.045243595
170	0x3b6358b4	0.0034690322
171	0x3cd48b6b	0.025945386
172	0x3cfe9ade	0.031079706
173	0xbd24996e	-0.040185384
174	0xbca40db8	-0.020026073
175	0xbd074c53	-0.033031773
176	0x3c8d0e92	0.017218862
177	0xbc23777e	-0.00997722
178	0x3cfe20ef	0.031021563
179	0x3ca36945	0.019947657
180	0xbc064c1b	-0.008196856
181	0xbc5bbbab	-0.013411443
182	0x3c74f3c0	0.014950693
183	0x3d0c96b1	0.034323398
184	0x3c4f19e2	0.012640448
185	0xbcbebe68	-0.023284152
186	0xbc8b071d	-0.016971165
187	0x3ca8e8f9	0.020618903
188	0xbcaa8751	-0.020816477
189	0xbd012467	-0.031528857
190	0x3d03648c	0.03207831
191	0xbd0350fb	-0.03205965
192	0x3b49e4ad	0.0030806467
193	0x3b83a3f4	0.0040173475
194	0x3d0a736b	0.033801477
195	0x3ccb250a	0.024797935
196	0xbd23bcb2	-0.039974876
197	0x3d0b20e3	0.03396691
198	0x3d1922ea	0.037386812
199	0xbc7c89a6	-0.015413677
200	0xbc93cfe8	-0.018043473
201	0x3cb2a162	0.021805469
202	0x3bf4de8f	0.00747282
203	0x3c94d24e	0.018166687
204	0xbbf58c63	-0.007493542
205	0xbd1dc8f5	-0.038521726
206	0xbc83a8e8	-0.016071752
207	0xbab721ab	-0.0013971826
208	0xbb551616	-0.0032514385
209	0x3d00b1b3	0.031419467
210	0xbc90c98e	-0.017674234
211	0xbce5cf0a	-0.028052825
212	0xbbd7671d	-0.0065735714
213	0xbbdfaff4	-0.006826395
214	0xbc602226	-0.013680017
215	0x3ca7d4ac	0.020487152
216	0xb9ae5eab	-0.000332584
217	0xbce58a2e	-0.02801999
218	0xbb8783a0	-0.004135564
219	0xbd298d64	-0.041394606
220	0xbce898dc	-0.028393202
221	0x3cc34422	0.0238362
222	0xbd047e8a	-0.03234724
223	0x3c26b802	0.010175707
224	0xbcb6e74b	-0.022327086
225	0x3b83efc0	0.004026383
226	0xbca68363	-0.020326322
227	0x3d1c00e2	0.03808678
228	0x3cabe822	0.020984713
229	0xb75f7ec0	-1.3321347e-05
230	0xbd328025	-0.04357924
231	0x3ce2f395	0.02770404
232	0x3cab9e5f	0.02094954
233	0x3c83e7cf	0.016101746
234	0xbc6fa9cb	-0.014627884
235	0xbaed4e80	-0.001810506
236	0xbcf1a4b3	-0.02949748
237	0xbcb0d9ba	-0.021588195
238	0xbd00eb2c	-0.031474277
239	0xbca740a5	-0.020416567
240	0xbd00418c	-0.03131251
241	0xbcf84568	-0.030306533
242	0xbd0de028	-0.0346376
243	0x3c9c9b20	0.019116938
244	0xbb5c1c40	-0.0033586174
245	0x3becf076	0.0072308136
246	0x3bd29a8a	0.006427114
247	0x3b965a71	0.004588418
248	0x3c5ee9ae	0.013605518
249	0x3b5eb3e4	0.0033981735
250	0x3aa2da80	0.0012424737
251	0xbb562307	-0.0032674687
252	0x3bcf1940	0.0063201487
253	0x3c0af850	0.008482054
254	0x3d1db0fb	0.03849886
255	0xbb8928e9	-0.004185785

conv3.bias f4 [128]
0	0xbd096f32	-0.03355331
1	0x3b62d6a9	0.003461281
2	0x38dea66c	0.000106167834
3	0xbc2a715e	-0.010403005
4	0xbce8cf56	-0.028419178
5	0xbd133438	-0.03593847
6	0x3c3253fe	0.010884283
7	0x3c0085ed	0.00784443
8	0xbb4cea49	-0.0031267575
9	0xbc21d590	-0.009877577
10	0x3d0d8326	0.0345489
11	0x3a02e85f	0.00049937324
12	0xbcb89f8a	-0.022537012
13	0x3d06a3a1	0.032870892
14	0xbba43af2	-0.0050119096
15	0x3c7c53d8	0.015400849
16	0xbcaadb4e	-0.020856526
17	0xbaa68938	-0.0012705689
18	0xbc42f8a2	-0.011900099
19	0x3cfda288	0.03096129
20	0x3c8e42b3	0.017365789
21	0x3c7c22ae	0.015389128
22	0x3d1205ed	0.035650183
23	0xbd2062b7	-0.03915664
24	0x3c693865	0.014234637
25	0xbc596c9f	-0.013270526
26	0x3cac209a	0.02101164
27	0xbd074fa3	-0.033034932
28	0x3c66be12	0.014083402
29	0x3ce5e707	0.028064264
30	0xbd2a057a	-0.04150913
31	0xbd20f1d7	-0.039293136
32	0x3c817fd0	0.015808016
33	0xbc551c41	-0.013007225
34	0xba41aade	-0.0007387827
35	0x3d261b21	0.040553216
36	0x3c6969b8	0.014246397
37	0xbd107ac9	-0.035273347
38	0x3d164309	0.036685023
39	0xbd02856b	-0.03186552
40	0xbca9948b	-0.020700714
41	0xb7e2c3e0	-2.703251e-05
42	0x3ba62e0d	0.0050714076
43	0x3caceccd	0.02110901
44	0x3d0bc1c1	0.034120325
45	0x3c450f2d	0.012027544
46	0xbd15f1f0	-0.036607683
47	0xbd1a0a51	-0.037607495
48	0x3d254378	0.040347546
49	0x3cd7d5c1	0.026347043
50	0xbcfcdb8c	-0.030866407
51	0x3cfe1c1f	0.031019269
52	0x3cdd37ac	0.027004085
53	0x3bab4c52	0.005227604
54	0x3cf66f47	0.030082358
55	0xbc7a9e1d	-0.015296486
56	0xbc5b0ca4	-0.013369713
57	0xbc796f21	-0.015224249
58	0xbc3933e1	-0.011303873
59	0x3c2f1472	0.010686027
60	0xbc30ae4b	-0.010783742
61	0x3b885cec	0.004161468
62	0xbc420a00	-0.0118432045
63	0x3cc9e8aa	0.024647076
64	0x3c662b34	0.014048386
65	0x3caf86e8	0.021426633
66	0x3d0e0d85	0.034680862
67	0x3d0c409b	0.0342413
68	0x3cc05246	0.023476731
69	0x3b0133ab	0.0019714634
70	0x3a0675f9	0.00051292736
71	0x3b59a084	0.0033207247
72	0xbcc56d2d	-0.02409991
73	0xbc449fd3	-0.012000996
74	0xbd008826	-0.03137984
75	0xbb209ff7	-0.002450941
76	0x3c1c85d8	0.009553395
77	0xbbf787b1	-0.0075540175
78	0xbcdd3522	-0.027002875
79	0xbca87af5	-0.020566443
80	0xbb4ec032	-0.0031547663
81	0xbd12ffe8	-0.035888582
82	0x3cfe57c5	0.031047711
83	0xbc60f0a5	-0.013729249
84	0x3b4c7c0f	0.0031201874
85	0x3cc64b54	0.024205841
86	0x3ce3a188	0.027786985
87	0xbb2a2d7d	-0.0025967055
88	0xbc7f3be9	-0.015578249
89	0x3c635520	0.013875276
90	0x3cf61e35	0.0300437
91	0xbc75d880	-0.015005231
92	0xbd05d130	-0.0326702
93	0x3d2d77e9	0.042350683
94	0xbce6bba0	-0.028165638
95	0x3c758724	0.014985833
96	0x3c98a461	0.01863307
97	0xbcd9e3bc	-0.02659785
98	0x3beb0e67	0.0071733478
99	0xbcdc20fd	-0.026871199
100	0x3cfb1a6a	0.030652244
101	0x3c09a099	0.008400106
102	0x3cd7e452	0.026353989
103	0x3d11bf82	0.035583027
104	0xbd267208	-0.040636092
105	0xbd128f49	-0.03578118
106	0xbcdc4114	-0.0268865
107	0x3d1d74bd	0.03844141
108	0x3d131ed9	0.03591809
109	0xbbc3667a	-0.005963144
110	0xbc5ec4b1	-0.0135967
111	0xbcad4a24	-0.021153517
112	0xbcefca1f	-0.029271184
113	0xbcd976a9	-0.02654584
114	0xbd164241	-0.03668428
115	0x3c0dfdb7	0.008666447
116	0xbc70204b	-0.014656137
117	0xbaa8e7da	-0.001288648
118	0xbc655177	-0.0139964735
119	0xbce94782	-0.02847648
120	0xbcd093dc	-0.02546113
121	0x3c2bb0e5	0.010479187
122	0x3c21c415	0.00987341
123	0xbd25da86	-0.040491603
124	0xbd18896a	-0.037240423
125	0x3b7d6dc5	0.0038670164
126	0x3b3c6078	0.0028744023
127	0x3d13564d	0.035970975

fc.weight f4 [2, 6272]
0	0xbbd8a73a	-0.006611732
1	0xb9221b66	-0.0001545973
2	0x3b883338	0.0041564964
3	0x3baf9ded	0.0053594024
4	0x3c05c9a7	0.008165753
5	0xbbf60160	-0.007507488
6	0x3b9f47ae	0.00486084
7	0xbc2c3bd7	-0.010512314
8	0x3a8272e3	0.0009952452
9	0xbba7f9ee	-0.0051262295
10	0x3b2ad5ec	0.0026067449
11	0xbbb10e0a	-0.005403285
12	0xbc3e667d	-0.011621115
13	0x3a0ee0d1	0.00054503704
14	0x3c187813	0.009305972
15	0xbb07a124	-0.0020695413
16	0x3bdb4fa9	0.006692846
17	0x3c4ba11e	0.01242855
18	0x3c4d6b9d	0.012537864
19	0xbc04a9d5	-0.008097132
20	0xbc1e9bf9	-0.0096807415
21	0xbb91c320	-0.0044483095
22	0xbba31cad	-0.0049777837
23	0xbb8d116c	-0.0043050554
24	0x3b33b9cc	0.0027423976
25	0x39dc825b	0.00042058792
26	0xbbde7870	-0.0067892596
27	0x3bb7c948	0.0056087114
28	0x3b8bb70a	0.0042637633
29	0xbc48f867	-0.012266255
30	0xbc4846cc	-0.012223911
31	0xbbe0523a	-0.0068457397
32	0xbadac302	-0.0016690197
33	0x3c00a4af	0.007851764
34	0x3acd86db	0.0015680449
35	0x3bbe086e	0.0057993447
36	0xbc10f3df	-0.008847206
37	0xbb2666ea	-0.0025390931
38	0x3b6233fb	0.0034515846
39	0x3c3e4c59	0.011614882
40	0xbb81401a	-0.003944409
41	0x3bb73658	0.005591195
42	0xbc3197a8	-0.01083938
43	0x3c2ed150	0.010670021
44	0xbc0cfb6b	-0.008604865
45	0x3c2d95f5	0.010594835
46	0xbc3f3421	-0.011670143
47	0x3b8ba7b9	0.0042619375
48	0xbc4a8515	-0.012360831
49	0xbb96ccc5	-0.004602047
50	0x3c311a9e	0.010809569
51	0xbc3d76df	-0.011563986
52	0xbb919e99	-0.004443955
53	0xbb37641b	-0.0027983251
54	0xbb05c6d6	-0.0020412705
55	0x3c0e3f90	0.008682147
56	0xbbbeedc2	-0.005826683
57	0xba1a1a40	-0.00058785453
58	0xbbd6cb33	-0.006554985
59	0x3a08e28f	0.0005221748
60	0xbc20bdee	-0.009810908
61	0x3b230fc4	0.0024881223
62	0xbbe97f5f	-0.0071257795
63	0xbc35c756	-0.011094889
64	0x3b1d78ca	0.0024028295
65	0xbc30fb1c	-0.010802057
66	0x3b009ca2	0.001962461
67	0x3bc92dd6	0.0061394973
68	0xbc361486	-0.011113292
69	0x3c4b9477	0.0124255335
70	0x3a7abba9	0.00095647067
71	0x3ba82219	0.005131018
72	0x3c271b34	0.010199357
73	0x3c2c020f	0.010498538
74	0xbc36d2be	-0.011158643
75	0x3c11182c	0.008855861
76	0x3c2c4f15	0.0105169015
77	0x3c089948	0.008337326
78	0xbb34e043	-0.002759949
79	0x3c0cec8d	0.00860132
80	0xbc19cf55	-0.009387811
81	0xbabc0f08	-0.0014347741
82	0xbc0d7d08	-0.008635767
83	0xbbeb0424	-0.0071721245
84	0x3c23bdae	0.009993954
85	0x3b83f0a2	0.0040264884
86	0x3be40e7f	0.006959736
87	0xb8676e82	-5.517761e-05
88	0xbc2619ea	-0.010138014
89	0xb91f1a96	-0.00015173326
90	0x3c0c0957	0.008547149
91	0x3c060602	0.008180143
92	0xbb40193b	-0.0029311914
93	0x3c590a6b	0.013247113
94	0x3c3e0825	0.0115986215
95	0x3c32204f	0.010871961
96	0x3c3b1c05	0.011420255
97	0x3b8bd6b2	0.004267537
98	0x3bd5f445	0.0065293633
99	0xbbfff55f	-0.007811233
100	0xbbf7f700	-0.0075672865
101	0xbc2e1e1d	-0.010627297
102	0xbc484127	-0.012222565
103	0xbb253ed6	-0.0025214455
104	0xbac4a268	-0.0015002014
105	0xbc489634	-0.012242842
106	0xbc3df40f	-0.011593833
107	0x3bf2e4b2	0.0074125165
108	0xbb3b9816	-0.0028624586
109	0xbc0782d2	-0.008270936
110	0x3b16e59a	0.0023025037
111	0xbba37b3f	-0.0049890573
112	0xbc316c75	-0.010829081
113	0xbb399f81	-0.0028323832
114	0xb9677bd0	-0.00022076
115	0x3b778e7c	0.0037774136
116	0x3a217e00	0.0006160438
117	0xbc234704	-0.009965662
118	0xbc7b004b	-0.015319894
119	0xbc208e11	-0.009799496
120	0x3ba8ffdc	0.005157454
121	0x3be91c9b	0.0071140057
122	0x3ba22d77	0.0049492675
123	0xbba526d9	-0.0050400314
124	0xbc2a75c6	-0.010404056
125	0xbc464209	-0.012100705
126	0xbbcba618	-0.0062148683
127	0x3be7fd9d	0.0070797936
128	0xba5f8c97	-0.00085277244
129	0xbb9e4147	-0.004829559
130	0x3b954797	0.0045556533
131	0x3a9a2eb8	0.0011763191
132	0x3bd487ab	0.0064858994
133	0xbbb6315b	-0.005560083
134	0x39cb7bd8	0.00038811448
135	0x3bdbaac3	0.006703706
136	0xbc404142	-0.011734309
137	0xb9db7067	-0.0004185468
138	0x3bef4e10	0.007303007
139	0xbc219f92	-0.009864705
140	0x3b730265	0.0037080285
141	0x3b4e7a9b	0.0031506184
142	0xbc1c7c97	-0.009551189
143	0x3bb3cb9e	0.0054869195
144	0xbc23ae0d	-0.009990227
145	0x3ba42f54	0.0050105248
146	0x3b6d3321	0.0036193805
147	0xbb8d17ff	-0.004305839
148	0x3b556f50	0.0032567568
149	0xbc048d5a	-0.008090341
150	0x3be710a7	0.0070515457
151	0xbbe19608	-0.00688434
152	0x3b1b4178	0.0023690145
153	0xbbf0dd2b	-0.007350584
154	0xbacd6ef8	-0.001567333
155	0x3b7d91c7	0.0038691626
156	0xbc4a4e9c	-0.0123478435
157	0xbc1f28bc	-0.009714302
158	0xbc04b6cc	-0.008100223
159	0xbc4b49b5	-0.01240771
160	0xbc025620	-0.007955104
161	0x3b6d21b9	0.003618343
162	0xbbaae1c2	-0.0052149007
163	0x3a3ba697	0.00071583077
164	0xbbdd232a	-0.0067485766
165	0xbc44b626	-0.012006318
166	0x3a5fe47f	0.00085408235
167	0xbc1df536	-0.009640982
168	0xba5ecbf2	-0.0008499018
169	0xbbccb2d3	-0.0062469034
170	0x3b2761d6	0.0025540492
171	0xbad943f1	-0.0016576034
172	0xbc19c9d6	-0.0093865
173	0x3bf39c5c	0.007434411
174	0xba9b89bf	-0.0011866613
175	0x3bb57722	0.0055378834
176	0x3aff2615	0.0019466305
177	0xbbe85fec	-0.007091513
178	0x3c0d731d	0.008633402
179	0xbbe44190	-0.0069658235
180	0x3c35dfef	0.011100753
181	0xbabf7b8e	-0.0014608966
182	0xbc3c7be6	-0.011504149
183	0x3c3dada0	0.01157704
184	0x3c173dbf	0.00923103
185	0x3b7813c2	0.0037853573
186	0x3b0db55f	0.0021622998
187	0xbba2aff2	-0.004964822
188	0x3c0b9b43	0.008520904
189	0xbbe5c764	-0.0070122946
190	0xbabe9cc9	-0.0014542575
191	0x3a29d95d	0.0006479228
192	0x3bb1e75d	0.005429192
193	0xbbc47c25	-0.0059962445
194	0xbb13191a	-0.0022445382
195	0x3b5dc90d	0.003384176
196	0x3c55af6d	0.013042313
197	0x3b8529a6	0.004063803
198	0x3b1f73cf	0.0024330502
199	0x3c331a32	0.010931538
200	0x3b87ad79	0.0041405526
201	0x3bec111c	0.007204188
202	0x39b71393	0.00034919064
203	0x3c55eec7	0.013057417
204	0x3c002cb2	0.007823156
205	0x3c4343d0	0.011918023
206	0x3b773fc7	0.0037727223
207	0x3b5228e9	0.0032067841
208	0xbc011498	-0.007878445
209	0x3c0c598c	0.0085662715
210	0xb95c9f65	-0.00021040214
211	0xbbc5401d	-0.006019606
212	0xbbb4d08e	-0.0055180257
213	0x3bc9a8b4	0.006154144
214	0x3b73413a	0.0037117735
215	0xbb9aa449	-0.0047192913
216	0xba5b26c3	-0.0008359963
217	0x3b9abd92	0.0047223056
218	0xbb5dc6c4	-0.0033840397
219	0x3bf1798f	0.0073692272
220	0xbc0978f5	-0.008390655
221	0xbbdc2f23	-0.0067194863
222	0xba265fd2	-0.0006346676
223	0xbbba59ee	-0.00568699
224	0xbc5fa968	-0.013651229
225	0xbc4c7243	-0.012478414
226	0x3b3d4a1a	0.002888328
227	0x3b538293	0.0032273873
228	0xbc10197c	-0.008795138
229	0xbc04012f	-0.008056923
230	0xbbe78361	-0.007065222
231	0xbc567af0	-0.013090834
232	0x3c48f659	0.012265765
233	0x3c13b651	0.009015636
234	0xbb87dad8	-0.0041459613
235	0xb997a868	-0.00028926437
236	0xbbfb7e06	-0.0076749353
237	0x3bd55f00	0.006511569
238	0x3a83c10c	0.0010052039
239	0xbc91cb22	-0.017797057
240	0xbbaf4bf1	-0.005349629
241	0x3c250d6b	0.010074
242	0xbbf47e06	-0.007461312
243	0xbb2248ba	-0.0024762587
244	0xbc217557	-0.009854636
245	0x3b921693	0.0044582575
246	0xbc30e937	-0.01079779
247	0x3bdbc451	0.0067067523
248	0xbb9027aa	-0.0043992596
249	0x3bde34bc	0.006781189
250	0x3c2cdaa5	0.010550176
251	0xbc236a76	-0.009974113
252	0x3a955d0d	0.0011395529
253	0xbb823a9f	-0.0039742733
254	0xbc16e6f8	-0.009210341
255	0x3c43bc9f	0.011946826

fc.bias f4 [2]
0	0x3b0b9f14	0.0021304535
1	0x3c0506e2	0.008119317
