model_b/cnn_medium.pth (torch, 121911 bytes, 8 tensors)

conv1.weight f4 [16, 1, 3, 3]
0	0xbe6aa07d	-0.22912784
1	0x3d5978ad	0.0530936
2	0xbe1fb00a	-0.15594497
3	0xbe9edaf3	-0.3102642
4	0xbe890d54	-0.2676798
5	0xbe983aaa	-0.29732257
6	0xbe7d24d5	-0.24721082
7	0xbe899b29	-0.2687619
8	0x3e694362	0.22779611
9	0x3deb255d	0.11481736
10	0x3e38ca38	0.1804589
11	0xbddec133	-0.108766936
12	0xbd32c297	-0.043642607
13	0xbe252904	-0.16128927
14	0xbe1f552c	-0.15559834
15	0x3d675943	0.05648161
16	0x3e3b2c79	0.18278684
17	0xbe0e1bf7	-0.13877855
18	0xbd4d1036	-0.050064288
19	0xbba6e0fa	-0.0050927373
20	0xbc5a83c8	-0.013337083
21	0x3e161158	0.14655054
22	0xbe828bda	-0.25497323
23	0xbe48c2f5	-0.1960562
24	0xbd8eb9b7	-0.06969016
25	0xbe09fec8	-0.13476098
26	0x3e89d7f6	0.26922578
27	0xbd603bf1	-0.054744665
28	0xbe9f4982	-0.3111077
29	0xbe1ae6e8	-0.15127146
30	0x3db8bce3	0.09020402
31	0x3e929d8c	0.28635824
32	0x3e737eb0	0.23778796
33	0x3e1b7c2b	0.15184085
34	0x3dfe7464	0.124245435
35	0xbd6b0b11	-0.0573836
36	0xbe57b101	-0.21063615
37	0x3e188ea6	0.14898166
38	0x3e311b2a	0.17295519
39	0xbea34b59	-0.31893423
40	0x3e16cdc6	0.14726934
41	0xbe26bd98	-0.16283262
42	0xbe04fb56	-0.12986502
43	0xbe7f39e5	-0.24924429
44	0x3e6022af	0.2188823
45	0x3e8fdead	0.28099576
46	0x3ea63892	0.32465035
47	0xbd45ccea	-0.048291124
48	0x3e93d1e3	0.28871068
49	0x3ea069f5	0.3133084
50	0xbe5faf13	-0.2184413
51	0xbe928710	-0.2861867
52	0xbe9b83ba	-0.30373937
53	0xbcee6e77	-0.029105408
54	0x3e2d8969	0.16946949
55	0x3d614888	0.05500081
56	0xbd9305d4	-0.07178846
57	0x3ea1aa19	0.31575087
58	0xbe4d0150	-0.20020032
59	0x3e22e2b7	0.15906797
60	0x3e477200	0.19477081
61	0x3e72400b	0.23657243
62	0x3e3effc8	0.1865226
63	0xbe11e932	-0.14249113
64	0x3e6a54a1	0.22883846
65	0x3e597aa2	0.21238187
66	0xbe754915	-0.2395366
67	0x3e2fe654	0.17177707
68	0xbdcd4960	-0.10023761
69	0xbe1ce7a0	-0.15322733
70	0x3e87f869	0.2655671
71	0x3d8b85d7	0.06812637
72	0xbea612e8	-0.324363
73	0x3e60acdf	0.21940945
74	0xbe77c398	-0.24195707
75	0xbe997c7b	-0.29977784
76	0xbd824a82	-0.063618675
77	0x3e75c2dd	0.24000116
78	0x3c4bb0b9	0.012432271
79	0xbe24a1ca	-0.16077343
80	0xbc45b992	-0.012068169
81	0x3e102804	0.14077765
82	0x3e906933	0.2820526
83	0xbe4f67a1	-0.20254375
84	0xbe8555f5	-0.26042143
85	0x3e9887ff	0.29791257
86	0x3d79ae62	0.06095732
87	0x3e384325	0.17994364
88	0x3e8845ec	0.26615846
89	0x3e3b7ff9	0.18310536
90	0xbe8e1367	-0.27749178
91	0x3c93515b	0.01798313
92	0x3d466be0	0.04844272
93	0x3d488cce	0.048962407
94	0xbe93ebd8	-0.28890872
95	0x3d81c18f	0.063357465
96	0xbd9471f2	-0.07248296
97	0x3db65c4d	0.08904324
98	0x3e910293	0.28322276
99	0x3e4e7c18	0.20164526
100	0xbd97db6a	-0.07414897
101	0xbdeed5be	-0.11661862
102	0xbdf03655	-0.11729113
103	0xbe8376b0	-0.2567649
104	0x3e5db09c	0.21649402
105	0xbe6fa4fb	-0.23402779
106	0xbe84ad99	-0.25913695
107	0xbcaba659	-0.020953344
108	0xbe0cb7d5	-0.13742001
109	0xbe40dc25	-0.18833978
110	0x3d764f2d	0.0601341
111	0x3d5b7030	0.053573787
112	0xbdd6cc17	-0.10488146
113	0xbdf58837	-0.119888715
114	0xbe85a44f	-0.2610192
115	0x3e91eca6	0.2850086
116	0xbe922a0a	-0.28547698
117	0x3e4f51ed	0.20246096
118	0x3e39d174	0.18146306
119	0xbe56812c	-0.20947713
120	0xbea2b189	-0.31776074
121	0xbbcb7126	-0.0062085567
122	0x3e01af70	0.1266458
123	0xbe37fe32	-0.17968062
124	0xbe918630	-0.2842269
125	0x3e5fcdc4	0.21855837
126	0xbea85994	-0.32880843
127	0xbe97143b	-0.29507622
128	0xbe2322a7	-0.15931188
129	0x3e470195	0.19434197
130	0x3e60ba4b	0.21946065
131	0xbe83c3ba	-0.25735265
132	0x3e289c5e	0.164659
133	0xbdc6fb9a	-0.09715958
134	0x3db0955c	0.08622238
135	0xbe572a02	-0.21012118
136	0xbe4f3c5f	-0.20237873
137	0x3dc87a0a	0.09788902
138	0x3e8831c0	0.26600456
139	0xbe2d7c7c	-0.16942018
140	0x3d2fb7cf	0.042899903
141	0x3e7afb36	0.24509892
142	0x3d5d1193	0.05397184
143	0x3d08bedc	0.033385143

conv1.bias f4 [16]
0	0xbe2199ef	-0.15781377
1	0xbe0dea46	-0.138589
2	0xbd4d4b25	-0.05012049
3	0x3e572482	0.2101002
4	0x3de916e9	0.11381323
5	0x3e3a4eb5	0.18194087
6	0x3e119bd5	0.14219601
7	0xbea93f3d	-0.3305606
8	0xbe4d85e9	-0.20070614
9	0x3e59ef64	0.21282727
10	0xbd261fed	-0.04055779
11	0xbd3548b3	-0.044258785
12	0x3e93ad78	0.28843284
13	0xbe3c4374	-0.18385106
14	0x3e9d35d1	0.3070512
15	0x3d97f0cb	0.074189745

conv2.weight f4 [32, 16, 3, 3]
0	0xbd44b7f5	-0.048026998
1	0xbdaf24fa	-0.085519746
2	0x3d1ff59b	0.039052587
3	0x3c86bcb3	0.0164474
4	0xbd889c33	-0.06670418
5	0xbd579267	-0.052629855
6	0x3cc2c5e2	0.023775999
7	0x3c10c3fc	0.008835789
8	0x3d829d8d	0.06377707
9	0xbd13036f	-0.035891946
10	0xbd122852	-0.035682984
11	0x3d6434f4	0.055714563
12	0x3d2a0141	0.041505102
13	0xbd2e99bf	-0.042627092
14	0xbd158a7f	-0.036509033
15	0x3ab0017d	0.0013428178
16	0xbd9abf3a	-0.07556005
17	0xbc698fe4	-0.014255498
18	0xbb19de27	-0.002347836
19	0x39a1cd31	0.00030861192
20	0xbd1b4eb0	-0.03791684
21	0x3d16d1d6	0.03682121
22	0x3c5b6556	0.01339086
23	0xbd2e1124	-0.042496815
24	0xbd90d854	-0.07072511
25	0x3d3a02b9	0.045412753
26	0xbd7acd1b	-0.06123076
27	0x3d7198d7	0.05898365
28	0xbd1b9644	-0.0379851
29	0xbdab80a1	-0.083741434
30	0xbd0c8938	-0.03431055
31	0x3d7352ee	0.05940526
32	0x3c9bc474	0.019014575
33	0x3c964357	0.018342657
34	0xbd0c79d0	-0.034295857
35	0xbd03dd6d	-0.03219359
36	0xbd991e70	-0.074765086
37	0xbdb227f1	-0.086990245
38	0x3d21d99d	0.039514173
39	0xbc8aabd8	-0.016927645
40	0x3c19fe71	0.009399042
41	0xbd35d930	-0.04439658
42	0xbc807546	-0.01568092
43	0x3d400248	0.046877176
44	0xbc4e0ff7	-0.0125770485
45	0x3d9372fe	0.071996674
46	0xbd77452a	-0.060368694
47	0xbd57bcf3	-0.05267043
48	0x3d92cf31	0.07168425
49	0x3d58e9d3	0.052957367
50	0xbda871a5	-0.08224801
51	0xbd06401a	-0.032775976
52	0x3b3409e5	0.0027471718
53	0x3d317a93	0.043329787
54	0x3c907463	0.017633623
55	0xbc62f592	-0.013852494
56	0xbd6fcdc2	-0.058545835
57	0xbcadc176	-0.021210413
58	0xbd899297	-0.06717413
59	0x3ce3381f	0.027736722
60	0xbd93c3c1	-0.072150715
61	0x3d95b80f	0.07310497
62	0xbbe5ecca	-0.007016753
63	0x3d92e980	0.07173443
64	0x3d1437b9	0.036185954
65	0x3d370eb7	0.044691768
66	0xbc7de7a3	-0.015497121
67	0xbcfe149a	-0.031015683
68	0xbcc6a82a	-0.024250109
69	0x3c1779ba	0.0092453305
70	0xbd90b311	-0.07065404
71	0xbc8e16d5	-0.017344872
72	0xbd27dbda	-0.04098115
73	0x3c2b6195	0.010460277
74	0xbceaf053	-0.028679049
75	0xbb58c2d8	-0.003307512
76	0xbd42abf0	-0.047527254
77	0x3d0a18ed	0.033715177
78	0x3d3af89a	0.04564724
79	0x3d533964	0.051568404
80	0xbd589c20	-0.052883267
81	0x3c0a4af7	0.008440725
82	0x3d45fca9	0.04833666
83	0xbd634bee	-0.055492334
84	0x3d0a51b8	0.03376934
85	0xbd9af8f5	-0.07567016
86	0xbd938c46	-0.072044894
87	0xbd81a267	-0.06329804
88	0x3d9c6688	0.07636744
89	0xbcdf9942	-0.027294759
90	0x3d1fd18b	0.039018195
91	0x3d5fe66e	0.054663114
92	0xbd2aa960	-0.041665435
93	0x3c7477b0	0.014921114
94	0x3d8262c5	0.06366495
95	0xbd023815	-0.031791765
96	0xbd364fea	-0.044509806
97	0xbd13e903	-0.03611089
98	0xbd7b64ff	-0.061375614
99	0xbd57cec4	-0.05268742
100	0xbcd92afd	-0.026509756
101	0x3d97d08f	0.07412826
102	0x3d8c741f	0.06858086
103	0x3c6b4299	0.01435914
104	0xbdaa3b5f	-0.083121054
105	0xbd1cbe31	-0.03826732
106	0x3bfd0517	0.007721554
107	0x3d976274	0.07391825
108	0x3d897140	0.06711054
109	0xbc42de11	-0.011893765
110	0xbd5de0d0	-0.054169476
111	0xbba7daa5	-0.0051225
112	0x3c8356ff	0.016032694
113	0x3d41dd7d	0.04733037
114	0xbd2a01e5	-0.041505713
115	0xbc6402a6	-0.013916647
116	0x3d9988f0	0.07496822
117	0x3c860106	0.01635791
118	0xbcd7b2a4	-0.0263303
119	0x3d395ff6	0.04525753
120	0xbd47e9e9	-0.04880706
121	0x3d8a0c39	0.067406125
122	0x3d89b7a1	0.067244776
123	0xbd0657c0	-0.03279853
124	0xbd0851c2	-0.033281095
125	0xbcfd9cdd	-0.030958587
126	0x3d954f91	0.07290567
127	0xbda7bc79	-0.08190245
128	0xbda32398	-0.07965773
129	0xbd07f5f0	-0.03319353
130	0xbd5b030d	-0.053469706
131	0x3cfd1602	0.030894283
132	0x3da01c6b	0.0781792
133	0x3d51c3d7	0.051212158
134	0x3d1c24da	0.038121082
135	0x3b8cfba8	0.0043024607
136	0xbd4cd7ac	-0.05001037
137	0xbd1b4315	-0.03790577
138	0xbcf867a4	-0.030322857
139	0xbd0788f3	-0.03308959
140	0x3c8630dc	0.01638072
141	0xbcfbcc93	-0.030737197
142	0x3beed36d	0.0072883875
143	0xbd27ca0c	-0.04096417
144	0xbc7ed53e	-0.015553771
145	0x3d255c2e	0.040371113
146	0x3cf4b00a	0.029869098
147	0x3d7431b2	0.059617706
148	0x3d088434	0.033329204
149	0x3c470b55	0.012148698
150	0x3c99a298	0.018754289
151	0xbba0311d	-0.0048886673
152	0xbd6a5700	-0.057211876
153	0xbd1fe75b	-0.039038997
154	0xbc17f415	-0.009274502
155	0x3d6eea9e	0.058329217
156	0xbd1d6464	-0.038425818
157	0x3d8f7db5	0.070063986
158	0x3d7f0ccf	0.062268075
159	0xbdab7178	-0.08371252
160	0x3d812f99	0.06307907
161	0xbc6e8f92	-0.014560597
162	0xbce0ba71	-0.027432652
163	0x3d90a38d	0.07062445
164	0x3d99e18b	0.07513722
165	0xbc350417	-0.011048338
166	0xbd264146	-0.040589593
167	0xbb8bafb4	-0.004262889
168	0x3d669d6b	0.05630247
169	0x3d2b0977	0.041757073
170	0x3d956d1e	0.07296203
171	0x3c4e400a	0.01258851
172	0x3d516c80	0.051128864
173	0x3c4b32b4	0.012402225
174	0x3d9a8770	0.07545364
175	0x3d6db5da	0.058034755
176	0x3924892f	0.00015691364
177	0xbca6e3ff	-0.020372389
178	0x3d9978e8	0.07493764
179	0xbd3ef2b0	-0.046618164
180	0x3d9eb1b6	0.077487394
181	0x3c556769	0.013025143
182	0xbd5cf61e	-0.053945653
183	0xbda5eca1	-0.08101774
184	0x3ccaf6cf	0.02477589
185	0xbd293229	-0.041307602
186	0xbd77b282	-0.060472973
187	0x3d28f351	0.04124767
188	0xbd102e2c	-0.035200283
189	0xbbf138fc	-0.0073615294
190	0x3ca644fd	0.020296568
191	0xbd9a6271	-0.075383075
192	0x3d8f56fa	0.06999011
193	0xbd9cffeb	-0.07666
194	0x3d6dfb59	0.058101032
195	0xbc028adb	-0.007967676
196	0xbd659c05	-0.056056995
197	0xbc4ada27	-0.012381113
198	0xba875c6c	-0.0010327226
199	0x3c57efc4	0.013179723
200	0x3cfeeed5	0.031119743
201	0x3cfd0025	0.030883858
202	0xbaa991ea	-0.0012937163
203	0x3ca9183d	0.02064144
204	0xbcd5a8dd	-0.026081497
205	0xbcaef02c	-0.021354757
206	0x3d33d00d	0.043899585
207	0x3d489b1c	0.04897605
208	0x3d8190d0	0.06326449
209	0x3d506c5d	0.050884593
210	0x3d2c7f36	0.042113505
211	0xbda87cf3	-0.08226957
212	0xbd9094d0	-0.07059634
213	0xbd958fcc	-0.07302818
214	0x3da51143	0.08059933
215	0x3c6e4ead	0.014545125
216	0x3cfb6a66	0.030690383
217	0x3d47a996	0.048745714
218	0x3d7da05e	0.061920516
219	0xbd4471e1	-0.047960166
220	0x3d5ebad4	0.054377392
221	0xbc6e1e84	-0.014533643
222	0x3b3b86f6	0.0028614379
223	0xb9cbae46	-0.0003884902
224	0xbd58333c	-0.052783236
225	0xbd3cb35a	-0.04606948
226	0xbd6b2c1a	-0.057415105
227	0xbd4c1094	-0.049820498
228	0x3cccf8ed	0.02502104
229	0x3c81330e	0.015771415
230	0xbc69812a	-0.0142519865
231	0xbd6d1af8	-0.057887048
232	0xbd2bed0d	-0.041974116
233	0xbd829ad1	-0.06377185
234	0x3d13a332	0.036044307
235	0xbcf2eeb1	-0.029654833
236	0x3d721bc5	0.059108514
237	0x3d529c9a	0.05141888
238	0xbc32741f	-0.010891943
239	0x3c59b246	0.013287133
240	0xbd514a58	-0.05109629
241	0xbd7e6c7d	-0.06211518
242	0x3d07670a	0.03305725
243	0x3bccf5ea	0.006254901
244	0xbd9fb199	-0.07797546
245	0x3d8c55f6	0.06852333
246	0x3b1cbaa5	0.002391496
247	0xbd4a2896	-0.049355112
248	0xbd519f19	-0.051177118
249	0x3a3b7768	0.0007151277
250	0xbd76b0c9	-0.06022719
251	0xbd9ce3fa	-0.076606706
252	0x3c3b30a1	0.011425168
253	0x3ce2cdde	0.027686056
254	0x3d86f551	0.06589759
255	0x3d6f0c5f	0.058361407

conv2.bias f4 [32]
0	0xbd1431fb	-0.036180478
1	0xbca1086d	-0.019657338
2	0xbd84d0eb	-0.064851604
3	0xbd464abf	-0.048411127
4	0x3d694ff4	0.056961015
5	0x3c4cab22	0.012491973
6	0x3d806e94	0.06271091
7	0xbd87dc99	-0.066338725
8	0x3d7c6c3f	0.06162667
9	0x3d89fcdd	0.06737683
10	0x3d839322	0.06424548
11	0x3b915401	0.004435063
12	0xbd34784e	-0.044060044
13	0x3d98a52b	0.07453378
14	0x3bef28af	0.007298551
15	0xbc2b13f6	-0.010441771
16	0x3c3b1aaa	0.011419931
17	0x3d8971b3	0.067111395
18	0x3d958ebe	0.073026165
19	0x3d01d34a	0.03169564
20	0x3d536e65	0.051618952
21	0x3d1afd1a	0.037839033
22	0x3c0072a4	0.007839832
23	0xbd9ef68e	-0.0776187
24	0xbd2d3586	-0.042287372
25	0xbd6803aa	-0.05664412
26	0xbd8450c1	-0.06460715
27	0xbb0904de	-0.0020907442
28	0x3cde6669	0.027148442
29	0xbd84c962	-0.06483723
30	0xbcba6e43	-0.022757655
31	0x3d964503	0.07337382

conv3.weight f4 [64, 32, 3, 3]
0	0x3d16c180	0.03680563
1	0xbd620f71	-0.055190507
2	0x3d72219d	0.059114087
3	0xbd46d5b5	-0.04854365
4	0xbcc64828	-0.024204329
5	0xbd0d9380	-0.034564495
6	0x3ce7cda2	0.028296296
7	0xbd3d4c9c	-0.04621564
8	0xbcece06d	-0.028915608
9	0xbba62f71	-0.0050715734
10	0xbd80137b	-0.062537156
11	0x3ba8e819	0.0051546213
12	0xbd02d7a5	-0.031943936
13	0xbc5ff57a	-0.013669366
14	0xbc6ffcb3	-0.0146476505
15	0x3d450574	0.048100904
16	0xbcbbbb6a	-0.022916514
17	0xbce35387	-0.02774979
18	0x3d23e3af	0.040012058
19	0x3d5193c7	0.051166322
20	0xbd4810a3	-0.04884399
21	0xbd30d1a2	-0.04316867
22	0x3d5f4d2f	0.054516967
23	0x3cd7e300	0.02635336
24	0x3cce3933	0.02517376
25	0x3d6de893	0.05808313
26	0x3d177813	0.036979746
27	0xbd3c5a09	-0.0459843
28	0xbd37094f	-0.04468661
29	0xbd2a387c	-0.041557774
30	0xbd129695	-0.035788137
31	0xbc29422e	-0.01033072
32	0xbd2e8e9a	-0.042616464
33	0x3d2adaf2	0.04171271
34	0xbd465bc8	-0.048427373
35	0x3c52d623	0.012868437
36	0x3d64f2cf	0.055895623
37	0x3a6ae009	0.00089597754
38	0x3d25d00f	0.040481623
39	0xbd315265	-0.04329147
40	0x3d1c6cde	0.03818976
41	0x3c4e961e	0.012609033
42	0xbcdbc3f2	-0.026826832
43	0x3d430b7f	0.047618385
44	0x3cf0021e	0.029297885
45	0xbd3c4ea8	-0.04597345
46	0xbd7defd0	-0.06199628
47	0xbca4826b	-0.02008172
48	0xbd1e1054	-0.03858979
49	0x3c694e67	0.014239884
50	0x3c99839c	0.018739514
51	0xbc3f23f1	-0.011666284
52	0xbd36068f	-0.04443985
53	0xbcda984b	-0.026683947
54	0xbc51cb38	-0.012804799
55	0x3a811281	0.0009847434
56	0x3d02688b	0.03183798
57	0x3c9887ec	0.0186195
58	0x39eb485b	0.00044876602
59	0xbd440233	-0.04785366
60	0x3cc910b6	0.024544101
61	0xbd1695cf	-0.036763962
62	0xbb6a424d	-0.0035745085
63	0x3cbd7852	0.023128662
64	0xbc9ce47d	-0.01915192
65	0xbd6b44a4	-0.057438508
66	0xbd44b993	-0.04802854
67	0xbc2e300b	-0.0106315715
68	0x3d36cae6	0.044627093
69	0xba92ab76	-0.0011190015
70	0x3ce2c5f2	0.027682278
71	0xbd168dfa	-0.036756493
72	0xbcf3cb64	-0.02976007
73	0xbc837de6	-0.016051244
74	0xbd02672f	-0.031836685
75	0xbd0b2f45	-0.033980627
76	0xbbd7445c	-0.0065694284
77	0xbd2be711	-0.04196841
78	0xbc6664de	-0.014062135
79	0x3d079701	0.033102993
80	0xbc893ab3	-0.016751623
81	0x3d51566b	0.051107805
82	0x3ce2139a	0.027597237
83	0xbbb96567	-0.00565784
84	0xbd05855e	-0.032597892
85	0x3cb0f77b	0.021602383
86	0xbb95c7fa	-0.004570958
87	0x3d23c15b	0.03997932
88	0xbd73a3ee	-0.059482507
89	0xbd1cf983	-0.03832389
90	0x3d09a439	0.03360388
91	0x3c6faa7b	0.014628048
92	0x3d29c977	0.041451897
93	0xb9a9d9f2	-0.00032396574
94	0xbd01982f	-0.031639274
95	0xbd39558b	-0.045247596
96	0xbc176251	-0.009239749
97	0x3b4e69ba	0.0031496123
98	0x3c6941f7	0.014236919
99	0xbc371be3	-0.011176082
100	0x3cd4a81d	0.025959069
101	0x3cfc1e88	0.030776277
102	0xb9d1f252	-0.0004004413
103	0x3bdf73e0	0.0068192333
104	0xbd54e478	-0.051975697
105	0xbc5e30ed	-0.0135614695
106	0x3d107393	0.03526647
107	0xbd70a904	-0.058754936
108	0xbd076b70	-0.033061445
109	0x3ce72320	0.028214991
110	0x3b8f2487	0.004368368
111	0x3d4799ae	0.048730545
112	0x3c6fd9c4	0.014639322
113	0x3c5ec5b9	0.013596945
114	0xbc95eecc	-0.018302344
115	0x3c9ea936	0.019367795
116	0xbcf853ca	-0.030313391
117	0x3cec4f0a	0.028846283
118	0x3d3dcce0	0.046337962
119	0x3d5fa8a4	0.054604188
120	0x3b96338d	0.004583782
121	0xba5fbe12	-0.00085350976
122	0xbcad6fa1	-0.021171393
123	0x3b96d462	0.0046029547
124	0x3ce04eff	0.027381418
125	0x3d4630cc	0.04838638
126	0xbd5bab22	-0.05363
127	0xbcf6183b	-0.03004085
128	0xbd04933d	-0.03236698
129	0xb9dc8612	-0.0004206156
130	0x3c290f0f	0.010318532
131	0xbd44c4cb	-0.04803924
132	0x3c1f5b45	0.00972635
133	0x3c0d0642	0.008607449
134	0xbd04df65	-0.032439608
135	0xbd2fa1f1	-0.04287905
136	0xbcba1370	-0.022714347
137	0xbcb8d4ce	-0.02256241
138	0x3cf51321	0.029916348
139	0x3c5939ed	0.0132584395
140	0x3cc7bdea	0.02438255
141	0xbd40ae0f	-0.047040995
142	0x3d50e200	0.05099678
143	0xbd0d4fa2	-0.034499772
144	0x3bb88d22	0.0056320587
145	0x3ce5c827	0.028049542
146	0xbbb05fa9	-0.0053824973
147	0xbcd96dcf	-0.026541619
148	0xbd81a3e7	-0.0633009
149	0x3d633ce2	0.055477984
150	0x3d5be50c	0.053685233
151	0xbbd7c1a2	-0.006584362
152	0x3c96cdac	0.018408619
153	0x3d5a130d	0.053240824
154	0x3d08aaea	0.03336612
155	0xbb46a5b8	-0.0030311178
156	0xbc65a477	-0.014016262
157	0x3cbd8372	0.023133967
158	0xbd2d221d	-0.04226886
159	0xbcc378df	-0.023861347
160	0xbd23abe4	-0.03995885
161	0x3d47e2f1	0.048800413
162	0xbd052396	-0.03250464
163	0x3ce8d5f1	0.028422328
164	0xbbaf9995	-0.0053588846
165	0x3cb00625	0.021487305
166	0xbcd138dd	-0.02553981
167	0x3d1531b7	0.036424365
168	0x3ca2b3cc	0.019861124
169	0xbd10de1d	-0.035368074
170	0x3c165048	0.009174414
171	0xbd4e6779	-0.050391648
172	0x3c0d1c70	0.008612737
173	0xbbb089f3	-0.0053875386
174	0x3d2f4c72	0.042797513
175	0x3d28d9e7	0.041223433
176	0xbd58e615	-0.0529538
177	0xbc2945eb	-0.010331611
178	0xbd5d22f4	-0.053988412
179	0x3cda4825	0.02664573
180	0x3cfd888c	0.0309489
181	0xbcd0c18a	-0.025482912
182	0xbd0486a4	-0.032354966
183	0xbd4db4f6	-0.050221406
184	0x3d1143f7	0.035465207
185	0xbd5446f3	-0.051825475
186	0x3c21c90b	0.009874593
187	0x3d4bfbcc	0.04980068
188	0xbd3bfbfd	-0.04589461
189	0x3d2edd9f	0.042691823
190	0x3d363d2c	0.04449193
191	0x3c5d32c3	0.013500872
192	0xbc43f532	-0.011960315
193	0xbc3c5765	-0.011495446
194	0xbc98fd35	-0.018675426
195	0x3c82c144	0.015961297
196	0xbc5435c9	-0.0129522765
197	0xbd04caf3	-0.03242011
198	0xbd7d85fc	-0.061895356
199	0x3c51e2eb	0.012810449
200	0x3d59ee01	0.053205494
201	0xbcc49c04	-0.024000175
202	0x3d1399aa	0.036035217
203	0x3d4d4dd2	0.050123043
204	0xbd597326	-0.05308833
205	0x3d07cb96	0.03315314
206	0xbcb06fe8	-0.021537736
207	0x3c74e697	0.014947555
208	0x3d084970	0.03327316
209	0x3c4539e7	0.012037731
210	0x3c85ad3b	0.016317954
211	0x3b2c364e	0.0026277485
212	0xbd51097f	-0.051034447
213	0xbca4af66	-0.020103168
214	0xbb34b3c4	-0.002757297
215	0x3cc26080	0.023727655
216	0x3cd8fc21	0.026487412
217	0xbc9ee1bd	-0.01939475
218	0xbcf35349	-0.0297028
219	0x3b346da5	0.0027531174
220	0x3d342b54	0.043986633
221	0xbc3d5fd5	-0.011558493
222	0xbd2d5811	-0.042320315
223	0xbd19983b	-0.037498694
224	0x3d437aa8	0.047724396
225	0x3cf76972	0.030201647
226	0xbd73d801	-0.05953217
227	0xbc7a3b02	-0.015272858
228	0x3b6bf489	0.0036003909
229	0x3c65f293	0.014034885
230	0x3d5a3a63	0.05327834
231	0x3ceb70b8	0.028740272
232	0x3c8583fe	0.01629829
233	0x3d4f6f82	0.05064345
234	0xbd20dcef	-0.0392732
235	0xbd52a6f4	-0.05142875
236	0x3c4facf3	0.012675512
237	0x3ceb1c3d	0.028699988
238	0xbc94fc1d	-0.018186623
239	0x3cf8573a	0.03031503
240	0xbc57b080	-0.0131646395
241	0xbd3666fc	-0.044531807
242	0x3d45d017	0.048294153
243	0x3cbf5c84	0.023359545
244	0x3c121d3a	0.008918101
245	0x3d6d9513	0.058003496
246	0xbd805010	-0.06265271
247	0xbca73a91	-0.020413669
248	0xbd67926d	-0.056536127
249	0x3bc33e94	0.0059583876
250	0x3d0c01ea	0.034181513
251	0x3c961c34	0.018323995
252	0xbd070be2	-0.032970317
253	0xbc3142fa	-0.010819191
254	0x3d44866f	0.04797977
255	0xbd70a5df	-0.058751937

conv3.bias f4 [64]
0	0xbd810c3c	-0.06301162
1	0xbd72c6c5	-0.059271593
2	0x3d2cd15f	0.04219186
3	0x3cc393ca	0.023874182
4	0xbcd3162f	-0.025767414
5	0x3cabebb4	0.020986415
6	0x3c82e1b7	0.01597677
7	0x3d6bcff6	0.057571374
8	0x3d41b645	0.047292966
9	0x3d50a1fc	0.05093573
10	0x3c170e41	0.009219707
11	0x3d51d3e7	0.051227476
12	0xbcf957ee	-0.030437436
13	0x3d5cf289	0.053942237
14	0xbd5afdb9	-0.053464625
15	0xbb9cdc17	-0.004786979
16	0xbce71369	-0.028207498
17	0xbc10662d	-0.008813423
18	0x3c765c1d	0.01503661
19	0xbcf34ca7	-0.029699637
20	0xbd231417	-0.03981408
21	0xbc99f7f6	-0.018794995
22	0xbd5af23e	-0.053453676
23	0x3cb7ee6d	0.022452557
24	0x3d61ccfc	0.05512713
25	0xbb5431ec	-0.0032378389
26	0xbcc0bb6e	-0.023526873
27	0xbcc40ef8	-0.023932919
28	0x3b7b59ae	0.0038353014
29	0x3c573740	0.013135731
30	0xbc3ccb35	-0.011523058
31	0xbd491841	-0.049095396
32	0x3c014aad	0.007891339
33	0x3d703bce	0.058650784
34	0x3cec2fbf	0.02883136
35	0xbcaac721	-0.020846905
36	0x3bbf8f4e	0.0058459407
37	0x3d16f098	0.03685054
38	0xbcaa4c42	-0.020788316
39	0xbb86b781	-0.004111231
40	0x3c3bb8cb	0.011457632
41	0xbc889c80	-0.016676188
42	0x3d244073	0.040100526
43	0xbd6a71ef	-0.05723756
44	0x3caf7423	0.021417683
45	0xbd2ac4ca	-0.04169158
46	0x3c519477	0.012791744
47	0xbd6f3e7c	-0.0584092
48	0xbbf484e4	-0.007462131
49	0xbc814519	-0.015780019
50	0x3a3362ba	0.00068430195
51	0x3c945281	0.018105747
52	0xbcb39786	-0.021922838
53	0x3ce590b0	0.028023094
54	0xbcd653ca	-0.026163
55	0x3bc06f87	0.00587267
56	0xbd46bff7	-0.048522916
57	0xbc463210	-0.012096897
58	0x3ae433a3	0.0017410408
59	0xbc387f86	-0.011260873
60	0x3ccf0e10	0.02527526
61	0x3d19baef	0.03753179
62	0x3d048167	0.03234997
63	0x3ce9416f	0.028473584

fc.weight f4 [2, 3136]
0	0x3b675e4e	0.0035304013
1	0xbc3824fd	-0.011239287
2	0xbc58feff	-0.01324439
3	0xbc8b575e	-0.017009433
4	0x3c5c85ac	0.013459604
5	0x3c4ffd4e	0.01269467
6	0xbc8b332a	-0.01699217
7	0x3bd0a97b	0.00636786
8	0xbb68b8e5	-0.0035510596
9	0xbc38baa4	-0.011274967
10	0x3c035a2d	0.008017105
11	0xbc6cf561	-0.0144628
12	0x3ba4737b	0.005018649
13	0xbbaad714	-0.0052136276
14	0xba6bcc12	-0.00089949474
15	0x3b1c0285	0.0023805213
16	0xbc8a0608	-0.016848579
17	0xbc3389c4	-0.010958139
18	0x3c0b2db4	0.008494783
19	0xbc44c354	-0.0120094605
20	0x3c383dc2	0.011245193
21	0x3c9b4517	0.018953843
22	0xbac61903	-0.0015113655
23	0xbc89ff3f	-0.016845344
24	0xbca521a2	-0.020157639
25	0x3c7cf678	0.015439622
26	0x3bc4cc34	0.006005788
27	0x3c37dc1a	0.01122191
28	0xbc787541	-0.015164674
29	0x3ba2f770	0.0049733445
30	0xbbba4c61	-0.0056853746
31	0x3c063d4e	0.008193327
32	0x3b49690e	0.0030732783
33	0x3afb6c5b	0.0019182073
34	0x3ba2df5f	0.0049704756
35	0xbc5bdbfb	-0.013419147
36	0xbbde888e	-0.006791181
37	0x3c476f01	0.0121724615
38	0x3c083f9d	0.008315948
39	0xbc4f1fb8	-0.01264184
40	0x3c919d9f	0.017775355
41	0xbc35142c	-0.011052173
42	0xbb55f5d3	-0.0032647743
43	0xbc60b1a5	-0.013714229
44	0xbab6caee	-0.0013945976
45	0xbb90da8e	-0.004420585
46	0x3a194fdc	0.0005848387
47	0xbc8844d2	-0.016634379
48	0xbc5589a1	-0.013033302
49	0xbba31b57	-0.0049776244
50	0x3c041c8c	0.008063447
51	0xbba6148e	-0.0050683683
52	0x3c52ad8c	0.01285876
53	0xbba6f69c	-0.005095316
54	0xbc65c3d8	-0.014023744
55	0xbbf5f8ee	-0.0075064814
56	0xbbdf06d6	-0.006806235
57	0x3c5509a2	0.013002785
58	0xbc0f038f	-0.008728876
59	0x3b62f2b7	0.0034629533
60	0x3ca0f70b	0.01964905
61	0xbae72554	-0.0017635026
62	0x3c9bcc10	0.019018203
63	0x3b92963d	0.004473476
64	0x3c7803c4	0.015137617
65	0x3c1cfd2c	0.009581845
66	0xba991750	-0.0011679921
67	0xbc80e315	-0.015733281
68	0xbc83aa9e	-0.016072568
69	0xbc2790f0	-0.010227427
70	0x3c6ded2e	0.01452188
71	0xbbcec61f	-0.006310239
72	0x3bbad9ca	0.005702232
73	0x3c478496	0.012177607
74	0x3c80062d	0.015627945
75	0xbc1cebcc	-0.009577703
76	0x3c4dac13	0.012553233
77	0xbbb13a73	-0.005408579
78	0x3b878dcc	0.0041367766
79	0x3c4bdd57	0.012442908
80	0xbb90b713	-0.0044163554
81	0x3c2372a3	0.009976062
82	0x3c406dea	0.011744956
83	0x3c22474e	0.009904696
84	0xbc826032	-0.01591501
85	0xbbcb9512	-0.006212839
86	0xbb3cba53	-0.0028797581
87	0x3b27f740	0.002562955
88	0x3ad26625	0.001605217
89	0x3bca17bc	0.00616738
90	0x3c2d8e03	0.01059294
91	0xbc53abf4	-0.012919415
92	0x3c2bafc7	0.01047892
93	0xbba4a3e5	-0.0050244206
94	0x3c7e1338	0.015507512
95	0xbb7b61c1	-0.0038357826
96	0xbc81531b	-0.015786698
97	0xbc2aec80	-0.010432363
98	0xbc603e06	-0.013686663
99	0xbc55028c	-0.0130010955
100	0xbc7e1c78	-0.015509717
101	0x3b7c2e9e	0.0038479934
102	0xbb07e1fd	-0.0020734065
103	0xbb999724	-0.004687207
104	0xbc5f3741	-0.013624013
105	0xbb82268d	-0.003971881
106	0x3abd2c35	0.001443273
107	0xbbcfc13d	-0.0063401745
108	0x3b9893c5	0.0046562874
109	0x3bf4bc7a	0.007468757
110	0xbc3a6c71	-0.0113783935
111	0xbc9412a2	-0.018075291
112	0xbb1e8876	-0.0024190224
113	0xbbe6187b	-0.0070219613
114	0x3c3cdde2	0.01152751
115	0x3c24516e	0.01002918
116	0xbc6e8897	-0.014558933
117	0x3c60abd8	0.013712846
118	0xbc9ec005	-0.019378671
119	0xbc7c8143	-0.015411678
120	0x3b8ab254	0.004232684
121	0x3bd16653	0.006390372
122	0xbc809af5	-0.01569889
123	0xbc1cfb05	-0.009581332
124	0xbc3f5ee7	-0.011680341
125	0xbc820396	-0.01587085
126	0xbc3ae30e	-0.011406673
127	0x3c176a90	0.009241715
128	0xbc8a81fe	-0.016907688
129	0x3bb043fb	0.0053791977
130	0x3b9f73df	0.004866108
131	0xbc1a8303	-0.00943065
132	0xbabf00ec	-0.0014572418
133	0xbbf5cfb8	-0.0075015686
134	0x3b85789f	0.004073217
135	0xbc8d0d54	-0.01721827
136	0x3ba48e93	0.005021879
137	0x3b958cfd	0.0045639263
138	0x3c7f6ba3	0.015589627
139	0xbb9b8750	-0.004746355
140	0x3b37072d	0.002792786
141	0x3c2f7b18	0.0107105
142	0xbc485652	-0.012227612
143	0x3b929f36	0.004474546
144	0xbc299a0e	-0.010351671
145	0xbc3f1688	-0.011663087
146	0xbb208f58	-0.0024499502
147	0x3b228601	0.002479911
148	0xbc57a7b7	-0.013162545
149	0xbc917f71	-0.017760964
150	0x3c6edfc5	0.014579718
151	0x3b882422	0.004154698
152	0x3bf6680d	0.007519728
153	0xbc885e28	-0.01664646
154	0x39e5c755	0.00043826798
155	0x3bd4ee56	0.0064981384
156	0x3c0c5f1f	0.0085676005
157	0xbc829047	-0.015937937
158	0xbbb57ffd	-0.005538939
159	0xbcaa873e	-0.020816442
160	0x3b35d012	0.0027742428
161	0x3b9ed425	0.004847067
162	0xbb077b33	-0.0020672798
163	0x3b351b82	0.0027634804
164	0xbc62bc61	-0.013838858
165	0x3c7d10d2	0.015445905
166	0xbc368fe8	-0.011142708
167	0x3bf0a63b	0.007344035
168	0xbc5d2847	-0.013498372
169	0xbc7b5ccc	-0.015341949
170	0xbb070a48	-0.0020605493
171	0x3bda487d	0.0066614733
172	0x3c116813	0.008874911
173	0x3bf972ea	0.007612576
174	0xbb5d1b21	-0.0033738094
175	0x39f1159a	0.00045983196
176	0x3c6cfbdc	0.014464345
177	0xbb07e760	-0.0020737275
178	0xbc4df0fa	-0.01256966
179	0x3c4153a2	0.011799725
180	0xbc35469e	-0.0110642
181	0xbc7d7830	-0.015470549
182	0xbc969441	-0.01838124
183	0xbc86d012	-0.016456638
184	0x3c7dda67	0.015493966
185	0xbc023bf0	-0.0079488605
186	0x3c44c1e5	0.012009119
187	0x3ae496f6	0.0017440009
188	0xbc86b41c	-0.016443305
189	0xbba344fa	-0.004982588
190	0xbbe308c4	-0.006928535
191	0xbc472059	-0.012153708
192	0xbc576954	-0.013147671
193	0x3bd98768	0.006638456
194	0xb9b09bfc	-0.00033685553
195	0x3bacd240	0.005274087
196	0xbbc845be	-0.0061118295
197	0xbb03ac68	-0.0020091776
198	0xbc9fad98	-0.019491956
199	0xbc055c1f	-0.008139639
200	0xbc397a43	-0.011320653
201	0xbc1e655d	-0.009667722
202	0x3bb2fa9d	0.0054620043
203	0x3c0fb821	0.008771927
204	0x3b59e6e3	0.0033249191
205	0xb9b7d1c7	-0.00035060776
206	0xbc4c91fc	-0.012485977
207	0xbb2fb749	-0.0026812127
208	0xbb8f5cc8	-0.004375074
209	0xbc92331f	-0.017846642
210	0xbbd1a2c7	-0.0063975784
211	0x3c1c4448	0.009537764
212	0xbc6de7ee	-0.014520628
213	0x3ca0edf2	0.019644711
214	0xbb928901	-0.0044718985
215	0x3c46c31d	0.01213148
216	0xbc88209a	-0.016617108
217	0xbb92ad32	-0.004476213
218	0xbc2093e9	-0.0098008895
219	0xbba2ede1	-0.004972205
220	0x3ba2d50d	0.0049692453
221	0xba2f903e	-0.0006697214
222	0xbc9e2c61	-0.01930827
223	0x3c231ecb	0.009956072
224	0xbae108e9	-0.0017168793
225	0xbc917337	-0.017755134
226	0x3baef769	0.005339552
227	0xbb997622	-0.004683272
228	0xbc8d8924	-0.017277308
229	0x3b28e47a	0.0025770948
230	0xbc8cdf22	-0.017196242
231	0x3bf66c50	0.007520236
232	0xbcab3922	-0.020901266
233	0x3b8d7084	0.0043163914
234	0x3c11477d	0.008867142
235	0x3c413c7d	0.011794207
236	0xbc4e4ba7	-0.012591279
237	0xbc4b75c4	-0.012418214
238	0xbc38c581	-0.011277557
239	0xbc0ad767	-0.0084742075
240	0xb965bb6e	-0.00021908965
241	0x3c2a1dac	0.010383051
242	0x3c6f3033	0.014598894
243	0x3c8357d5	0.016033093
244	0xbca1f5b4	-0.01977048
245	0xbc8d30ed	-0.017235244
246	0x394dcd3f	0.00019626784
247	0xbb8d1c69	-0.0043063653
248	0x3b1ffcdc	0.002441219
249	0x3bcdd32e	0.006281278
250	0xbbbf949a	-0.005846572
251	0xbc70bfaa	-0.014694134
252	0x3c05e154	0.008171398
253	0x3be982b4	0.0071261767
254	0xbc89b9b3	-0.016812181
255	0x3c3e4cc9	0.011614987

fc.bias f4 [2]
0	0x3b994825	0.0046777898
1	0x3ca5fcef	0.02026221
