model_b/cnn_small.pth (torch, 39657 bytes, 8 tensors)

conv1.weight f4 [8, 1, 3, 3]
-0.067335784 -0.14318676 0.25208762 -0.028277412 0.08805782 -0.10249833 0.008244275 -0.046994522
-0.010619682 0.2528631 0.13575985 -0.29873422 -0.09403654 0.046490375 -0.006741334 0.08533238
-0.07421274 0.32437763 0.077481285 -0.29115945 0.33000937 -0.20681544 -0.062813886 -0.27844405
-0.075648315 0.05362271 -0.10924272 -0.33157647 0.29415163 0.031839594 -0.27240592 0.12272039
-0.31445912 -0.15709564 -0.2713392 0.20037833 -0.01978497 0.3201894 0.2983493 -0.0024578536
0.22456145 0.08666739 0.29109943 0.0885374 0.079819284 -0.2381552 0.32768127 0.3056333
0.25434166 0.113507465 0.057748668 -0.2046116 0.33271953 -0.29597053 0.27129853 0.28524995
-0.043872077 0.04541407 0.035143405 0.09057054 0.20297152 -0.03751084 0.2616533 0.13771683
0.27647376 -0.14223516 0.28666472 -0.22889705 0.14566985 -0.2164972 0.19085737 0.21223381
00000000: 58e7 89bd 8d9f 12be a111 813e 08a6 e7bc
00000010: a957 b43d a5ea d1bd ff12 073c 547d 40bd
00000020: 2dfe 2dbc 4677 813e a104 0b3e b1f3 98be
00000030: 3b96 c0bd b16c 3e3d 69e6 dcbb bec2 ae3d
00000040: d9fc 97bd d314 a63e 82ae 9e3d da12 95be
00000050: fdf6 a83e 6dc7 53be 91a4 80bd 3890 8ebe
00000060: 81ed 9abd 7da3 5b3d a6ba dfbd 64c4 a9be
00000070: 0b9b 963e 3c6a 023d ca78 8bbe d454 fb3d
00000080: c900 a1be aedd 20be f9ec 8abe fa2f 4d3e
00000090: 1714 a2bc ddef a33e 3dc1 983e f113 21bb
000000a0: 70f3 653e ac7e b13d fc0a 953e 1953 b53d
000000b0: 4b78 a33d f5de 73be d7c5 a73e f87b 9c3e
000000c0: 1239 823e 9a76 e83d de89 6c3d b485 51be
000000d0: 375a aa3e 7389 97be a4e7 8a3e 480c 923e
000000e0: 35b3 33bd 1b04 3a3d 88f2 0f3d 0c7d b93d
000000f0: c4d7 4f3e f7a4 19bd 6cf7 853e a405 0d3e
00000100: f88d 8d3e 18a6 11be b8c5 923e fd63 6abe
00000110: 7a2a 153e 71b1 5dbe 1d70 433e d253 593e

conv1.bias f4 [8]
0.29773095 0.24853463 0.051994104 -0.13186651 -0.27180433 0.3144011 0.15743554 -0.28295013
00000000: 3170 983e dd7f 7e3e c5f7 543d 0408 07be
00000010: f029 8bbe 2ef9 a03e c836 213e d7de 90be

conv2.weight f4 [16, 8, 3, 3]
0.091098875 -0.031084165 -0.10627505 0.045800067 0.0721795 0.0998646 -0.06282637 0.038803272
-0.080456026 -0.027473006 0.06049015 -0.04568853 -0.09380808 -0.08405088 -0.0834759 -0.030989403
0.016755411 -0.03490363 -0.10958722 -0.028028864 0.11098144 0.050908033 -0.045271225 -0.007345627
0.11105239 -0.11398453 -0.05880644 0.101624854 0.07553245 0.09574199 -0.062254783 -0.07445643
0.10742332 0.10185038 -0.0002833114 0.011406468 0.08572866 -0.09771123 0.09892295 -0.00030757845
0.016344681 -0.09382118 -0.10528591 -0.029730592 -0.10745244 0.03877762 0.03547518 -0.047086887
0.05625703 0.08183674 -0.11234191 0.028255207 0.01976966 -0.09127419 0.10465455 -0.09230279
-0.043566704 -0.109679855 0.07532827 -0.053220645 0.075638436 0.0014625872 0.028436054 0.027600706
-0.016161643 0.06481198 -0.009430713 0.070696056 -0.0071206763 0.055595215 -0.07575461 -0.11306404
0.020403847 -0.04973291 -0.030229338 0.11035059 0.046652563 0.040078077 0.04373183 0.11846791
-0.04523761 -0.022454707 -0.03775518 0.064079456 0.08970789 0.09740174 0.060957406 0.061178863
-0.10817669 0.049592916 -0.058549315 0.004707215 -0.061584435 -0.035480767 0.07566104 -0.031515297
0.103064835 -0.07274719 0.096936464 0.09571809 -0.00798964 0.10639761 0.041495115 0.08962559
-0.034882452 -0.089649834 0.03541443 -0.01719159 -0.10233849 0.08100774 0.0035035664 0.025873918
-0.1058278 -0.07300046 0.055947594 0.05490968 -0.075155996 -0.061607692 0.05895036 -0.08454749
-0.048522864 -0.09661612 -0.0892617 -0.10800523 0.042748183 0.036853652 -0.019380493 0.008422445
-0.10243759 -0.06375348 0.044813115 0.037501212 0.03574474 -0.10762061 0.12015077 -0.11734645
-0.054659445 0.06333966 0.06314636 0.09233851 0.049396437 0.062884636 0.022617942 -0.091902055
0.07037391 -0.100097686 0.08879246 -0.07509026 0.03205488 0.08936254 0.048587628 -0.06666503
-0.006440865 0.086227365 -0.08611344 -0.005965511 0.0697661 -0.08279637 -0.010702073 0.052280568
0.0045781913 -0.056485806 -0.06984178 -0.00823084 0.08561844 -0.052520957 0.07484057 -0.018473934
-0.09008055 0.003491246 0.052813698 0.05718916 0.02931306 -0.07870839 0.04657908 -0.066820584
0.020950632 0.08605595 -0.0012843916 -0.083700605 0.053045448 0.014445601 -0.043013494 -0.071854554
-0.024779912 0.076312035 0.09784887 -0.11631137 -0.072306745 0.0708938 0.08490074 -0.114318565
-0.07392817 -0.041737787 -0.10953149 0.08634571 0.053854674 0.11444976 -0.06897169 0.053690527
0.09206307 -0.059358012 0.010913519 0.035778906 -0.06992721 -0.08869831 0.06488899 -0.009595807
-0.046707887 -0.046109464 0.04364257 -0.055600464 0.099166855 0.024145856 0.042199817 -0.012701412
-0.012214287 0.08714405 0.053812876 -0.005151397 -0.004917394 0.007017155 -0.047751628 0.025396895
0.08781704 -0.113223866 0.05646613 0.036545947 -0.051634718 0.09578384 0.07823383 0.031933866
-0.026925711 -0.0061091026 -0.09827467 -0.02654219 -0.06409102 0.08882068 -0.0018150563 0.012438158
0.07040839 -0.064686835 0.05069679 0.054341495 0.030092642 0.09836931 -0.0841116 -0.015081255
0.016107567 -0.0060792025 -0.08437148 -0.008242792 -0.04700202 0.037223738 -0.031145334 -0.09120304
00000000: 0c92 ba3d 38a4 febc bca6 d9bd da98 3b3d
00000010: d8d2 933d d085 cc3d 1dab 80bd 2ef0 1e3d
00000020: 21c6 a4bd 120f e1bc 85c4 773d e523 3bbd
00000030: 731e c0bd de22 acbd 6af5 aabd 7ddd fdbc
00000040: a542 893c 1cf7 0ebd 446f e0bd ca9c e5bc
00000050: 3d4a e33d f184 503d 526e 39bd 96b3 f0bb
00000060: 6f6f e33d b970 e9bd 06df 70bd b120 d03d
00000070: c2b0 9a3d 6014 c43d dffe 7ebd 9d7c 98bd
00000080: c200 dc3d ef96 d03d 6a89 94b9 32e2 3a3c
00000090: 8292 af3d d31c c8bd 1e98 ca3d 7b42 a1b9
000000a0: 48e5 853c 5225 c0bd 24a0 d7bd 928d f3bc
000000b0: 0610 dcbd 48d5 1e3d 6c4e 113d 2ede 40bd
000000c0: c66d 663d 059a a73d 8413 e6bd 7777 e73c
000000d0: fbf3 a13c f6ed babd 2055 d63d 3f09 bdbd
000000e0: 0073 32bd d59f e0bd b545 9a3d e4fd 59bd
000000f0: 53e8 9a3d 48b4 bf3a baf2 e83c e01a e23c
00000100: 6c65 84bc 25bc 843d 4783 1abc 18c9 903d
00000110: 9054 e9bb cfb7 633d 3c25 9bbd 1f8e e7bd
00000120: f825 a73c bcb4 4bbd 84a3 f7bc 7dff e13d
00000130: c216 3f3d e928 243d 2620 333d 4e9f f23d
00000140: 124b 39bd eff2 b7bc 2da5 1abd 173c 833d
00000150: c5b8 b73d 907a c73d 79ae 793d b096 7a3d
00000160: be8b ddbd f121 4b3d 68d1 6fbd fb3e 9a3b
00000170: f63f 7cbd 4854 11bd 2df4 9a3d 2f16 01bd
00000180: a813 d33d 7bfc 94bd a086 c63d d907 c43d
00000190: fbe6 02bc fde6 d93d c8f6 293d 9f8d b73d
000001a0: e7e0 0ebd 559a b7bd b90e 113d 61d5 8cbc
000001b0: d896 d1bd 63e7 a53d 179c 653b 8af5 d33c
000001c0: 3fbc d8bd 4481 95bd 4e29 653d f9e8 603d
000001d0: 63eb 99bd 5958 7cbd ef75 713d 3c27 adbd
000001e0: e9bf 46bd acde c5bd d7ce b6bd d931 ddbd
000001f0: b818 2f3d dbf3 163d d7c3 9ebc 4bfe 093c
00000200: cdca d1bd 2f91 82bd f58d 373d df9a 193d
00000210: 1469 123d 3268 dcbd 9b11 f63d 5653 f0bd
00000220: 95e2 5fbd 39b8 813d e152 813d f91b bd3d
00000230: eb53 4a3d a9c9 803d 4349 b93c 2537 bcbd
00000240: 3220 903d 0400 cdbd d2d8 b53d ecc8 99bd
00000250: fa4b 033d b503 b73d d203 473d ad87 88bd
00000260: e40d d3bb f997 b03d 3e5c b0bd 557a c3bb
00000270: 87e1 8e3d 2591 a9bd bf57 2fbc 2624 563d
00000280: a704 963b a95d 67bd 3509 8fbd a5da 06bc
00000290: b858 af3d 3720 57bd 0346 993d a656 97bc
000002a0: 277c b8bd 63cd 643b 2d53 583d 2e3f 6a3d
000002b0: f121 f03c dd31 a1bd b5c9 3e3d 3bd9 88bd
000002c0: a9a0 ab3c 1a3e b03d 0859 a8ba 396b abbd
000002d0: 2f46 593d 3ead 6c3c eb2e 30bd 7b28 93bd
000002e0: 3eff cabc 7c49 9c3d fd64 c83d a834 eebd
000002f0: 8f15 94bd c530 913d 70e0 ad3d da1f eabd
00000300: a767 97bd 3ef5 2abd 0c52 e0bd 05d6 b03d
00000310: b896 5c3d a364 ea3d 0841 8dbd 99ea 5b3d
00000320: 908b bc3d 6321 73bd 9ece 323c e78c 123d
00000330: ff35 8fbd 76a7 b5bd 85e4 843d bb37 1dbc
00000340: c550 3fbd 47dd 3cbd 8dc2 323d 50bd 63bd
00000350: fe17 cb3d 88cd c53c b7d9 2c3d 9519 50bc
00000360: 6f1e 48bc 9478 b23d e46a 5c3d 0dcd a8bb
00000370: 1722 a1bb 2af0 e53b 3697 43bd 260d d03c
00000380: 6cd9 b33d eae1 e7bd 0749 673d 34b1 153d
00000390: ed7e 53bd 512a c43d 0f39 a03d 16cd 023d
000003a0: 4f93 dcbc de2e c8bb 3b44 c9bd 026f d9bc
000003b0: 2742 83bd 9ee7 b53d 2fe7 edba 6ac9 4b3c
000003c0: 4632 903d 887a 84bd 70a7 4f3d 3095 5e3d
000003d0: d884 f63c d975 c93d b442 acbd 5e17 77bc
000003e0: 04f4 833c 0c34 c7bb f4ca acbd c70c 07bc
000003f0: 3185 40bd eb77 183d 8024 ffbc a9c8 babd

conv2.bias f4 [16]
-0.016269611 -0.0389865 0.06750102 -0.073330194 0.026029082 -0.08753179 -0.030278135 0.04854027
-0.011239065 -0.06339288 0.028116973 -0.0023969186 0.019934295 -0.023916392 -0.010393312 -0.07191376
00000000: d947 85bc 4fb0 1fbd fa3d 8a3d 242e 96bd
00000010: f13a d53c de43 b3bd da09 f8bc 2ad2 463d
00000020: 0e24 38bc 20d4 81bd 9155 e63c 9f15 1dbb
00000030: 3f4d a33c 4fec c3bc b648 2abc 8547 93bd

conv3.weight f4 [32, 16, 3, 3]
-0.024331342 0.0026943665 0.035316583 -0.018571984 0.040983554 -0.040816244 0.07103309 -0.050068486
-0.08855825 -0.06737951 0.007868128 -0.029466629 -0.0064500906 0.014415942 -0.05132547 -0.014962791
0.036164913 -0.051270034 0.04688126 0.014061332 0.024617359 -0.040032994 -0.027274907 -0.006789778
-0.029162312 0.049233973 -0.052440986 -0.0010357251 0.00670517 -0.0042675654 0.040948693 -0.07700519
0.06827574 0.03179032 0.0563867 -0.00749431 -0.03366173 0.073773354 0.04130559 -0.042760674
0.0637285 -0.06218089 -0.014300314 0.0073409276 -0.08570603 -0.076962605 -0.050464764 -0.053519323
-0.0025103672 -0.059570435 0.011022043 -0.06878436 -0.07661827 -0.07206398 -0.011659309 -0.013889777
-0.059369914 0.048233632 -0.07104309 0.01437027 0.0039567277 -0.05435336 -0.030074343 0.017798305
-0.06792539 0.00906482 -0.0023607097 0.075646624 -0.03838613 0.07648721 0.024553364 -0.06522766
0.05974915 0.00043644538 0.07690981 -0.02242403 0.006583215 0.006305062 0.07922054 -0.038516704
0.01902351 -0.05088473 0.057760056 0.07473059 0.00837042 -0.07320436 0.05950989 -0.06369293
0.02144371 -0.0048726914 0.0026346815 0.009549976 0.043773957 0.015903367 -0.03125241 0.06893576
0.050036766 -7.797971e-05 -0.08414141 -0.053559534 -0.05416357 0.06765284 -0.016585328 0.049423248
0.00916669 0.04413968 0.06797812 -0.074011385 0.004586619 0.059276935 -0.05606008 0.03442802
-0.010490917 -0.055804234 -0.029461399 0.042845 -0.03782647 -0.054324217 -0.07301087 0.068659335
0.04883051 -0.0317827 -0.06331043 -0.01683555 0.053853914 -0.06457001 -0.020510036 0.036051445
-0.086335644 0.06312998 -0.05979117 0.005962626 0.008705246 -0.020118348 0.03669445 -0.06061762
-0.024024578 0.030293318 0.06464836 -0.056879766 0.02608858 0.028247934 0.020587977 -0.06924736
0.045947973 0.0323745 0.07359272 0.06811117 -0.062076192 -0.021477139 0.0127788875 -0.061792694
0.05402577 -0.03377272 -0.06409593 0.031490125 -0.012803414 -0.080114685 0.00037680502 0.0027939084
-0.06372946 -0.03843438 -0.05269449 0.074157 -0.024703788 -0.074104056 -0.00021564745 0.071874395
0.005540869 -0.0023842496 0.037251517 0.047972314 0.023815118 0.054283287 0.0074833226 -0.07348449
0.016437134 0.025961434 -0.06786549 -0.05185329 0.028550176 0.071680665 -0.080340445 -0.06365413
0.011023661 0.018854698 -0.019664116 -0.00966674 0.0228001 -0.03408455 0.08981628 -0.053557333
0.008285275 0.050084915 0.03551109 0.06150297 -0.05093923 0.032180127 0.036126144 -0.038883045
-0.0680433 -0.0414177 -0.04993824 0.05455044 -0.0113404505 0.04810272 -0.07214891 -0.0846646
0.015314808 0.057995193 0.0012020102 0.07536332 -0.0023859127 0.027267128 -0.03433424 -0.002464028
-0.06893386 0.011090908 0.07681265 -0.07795783 -0.044959635 -0.06626264 -0.05668957 0.05885316
-0.032677 -0.08162338 0.06084659 0.044252604 0.041119993 0.041013308 -0.058652867 -0.08634101
0.03227285 0.051205102 0.07507407 -0.031556956 0.058316965 -0.036248084 0.06414896 -0.07631326
-0.080629244 0.023863614 -0.0035947696 -0.037330084 0.020471135 0.027997311 -0.058814198 0.04462017
-0.0737674 -0.05488116 -0.020571474 -0.07336515 -0.008022494 0.073134005 0.06989148 -0.06577752
00000000: 8652 c7bc f893 303b 1fa8 103d 4624 98bc
00000010: 5fde 273d ef2e 27bd cc79 913d 9d14 4dbd
00000020: 075e b5bd 45fe 89bd 52e9 003c 0064 f1bc
00000030: 485b d3bb d830 6c3c a83a 52bd 7f26 75bc
00000040: a921 143d 8700 52bd 9006 403d 8061 663c
00000050: 58aa c93c a3f9 23bd a06f dfbc c97c debb
00000060: cde5 eebc 90a9 493d 5ccc 56bd 2bc1 87ba
00000070: 0bb7 db3b efd6 8bbb d1b9 273d e6b4 9dbd
00000080: 27d4 8b3d 9136 023d bef5 663d d492 f5bb
00000090: e2e0 09bd 7c16 973d 0d30 293d d125 2fbd
000000a0: 1684 823d 64b1 7ebd dd4b 6abc 2a8c f03b
000000b0: a586 afbd 929e 9dbd 24b4 4ebd 1437 5bbd
000000c0: f984 24bb 2100 74bd cd95 343c d1de 8cbd
000000d0: 0aea 9cbd 4896 93bd b006 3fbc f291 63bc
000000e0: de2d 73bd a190 453d 0a7f 91bd 4871 6b3c
000000f0: 70a7 813b a1a1 5ebd 785e f6bc c0cd 913c
00000100: 781c 8bbd 9c84 143c 23b6 1abb 9eec 9a3d
00000110: c63a 1dbd 54a5 9c3d 2324 c93c 1496 85bd
00000120: 86bb 743d b5d2 e439 e482 9d3d 99b2 b7bc
00000130: 03b8 d73b b29a ce3b 613e a23d b1c3 1dbd
00000140: 31d7 9b3c 826c 50bd cf95 6c3d 5a0c 993d
00000150: 1624 093c 2bec 95bd a4c0 733d 7071 82bd
00000160: b8aa af3c 19ab 9fbb 9faa 2c3b 8177 1c3c
00000170: 524c 333d c747 823c 8702 00bd 312e 8d3d
00000180: 5af3 4c3d 0a89 a3b8 5552 acbd 3e61 5bbd
00000190: 9fda 5dbd 928d 8a3d f4dd 87bc 0870 4a3d
000001a0: e22f 163c cfcb 343d 1d38 8b3d 4893 97bd
000001b0: 594b 963b 5fcc 723d 419f 65bd 6504 0d3d
000001c0: 18e2 2bbc fb92 64bd 0859 f1bc 3d7e 2f3d
000001d0: eeef 1abd 1283 5ebd b986 95bd 449d 8c3d
000001e0: 8002 483d 942e 02bd e6a8 81bd b5ea 89bc
000001f0: ec95 5c3d 483d 84bd aa04 a8bc aeaa 133d
00000200: bed0 b0bd 4a4a 813d 96e7 74bd 2262 c33b
00000210: 73a0 0e3c 3ccf a4bc eb4c 163d 2e4a 78bd
00000220: 31cf c4bc b129 f83c 5c66 843d c2fa 68bd
00000230: b8b7 d53c 3668 e73c 1ea8 a83c 8fd1 8dbd
00000240: f133 3c3d 209b 043d c8b7 963d de7d 8b3d
00000250: 9b43 7ebd d3f0 afbc 8a5e 513c 561a 7dbd
00000260: 204a 5d3d 4355 0abd ba44 83bd cafb 003d
00000270: 69c5 51bc 2b13 a4bd ea8d c539 011a 373b
00000280: 9784 82bd 5e6d 1dbd 2dd6 57bd a0df 973d
00000290: 995f cabc dec3 97bd 6c1f 62b9 e232 933d
000002a0: 2e90 b53b 1241 1cbb 0c95 183d 9e7e 443d
000002b0: ec17 c33c 2758 5e3d a936 f53b 097f 96bd
000002c0: 2ba7 863c 13ad d43c 10fd 8abd 1e64 54bd
000002d0: 0fe2 e93c 50cd 923d 8889 a4bd 195d 82bd
000002e0: 969c 343c 2b75 9a3c a416 a1bc 3f61 1ebc
000002f0: 46c7 ba3c 3e9c 0bbd 99f1 b73d ef5e 5bbd
00000300: f6be 073c d725 4d3d 1474 113d 8aea 7b3d
00000310: a7a5 50bd 4fcf 033d 02f9 133d d443 1fbd
00000320: 495a 8bbd 9ba5 29bd 0a8c 4cbd 4870 5f3d
00000330: 4ccd 39bc 5c07 453d cfc2 93bd a264 adbd
00000340: f6ea 7a3c 5e8c 6d3d c58c 9d3a 1658 9a3d
00000350: f95c 1cbb 505f df3c 0fa2 0cbd 887b 21bb
00000360: 322d 8dbd a4b6 353c f34f 9d3d 5ba8 9fbd
00000370: 9827 38bd b5b4 87bd 5333 68bd 0310 713d
00000380: 51d8 05bd 292a a7bd 463a 793d 3842 353d
00000390: 706d 283d 92fd 273d fd3d 70bd 8ed3 b0bd
000003a0: 8930 043d 71bc 513d 6fc0 993d de41 01bd
000003b0: c5dd 6e3d df78 14bd 8860 833d 204a 9cbd
000003c0: f220 a5bd a07d c33c 3a96 6bbb 6ee7 18bd
000003d0: 15b3 a73c 9e5a e53c 28e7 70bd a4c3 363d
000003e0: 5d13 97bd 11cb 60bd 8285 a8bc 7840 96bd
000003f0: c770 03bc 48c7 953d 4423 8f3d 5db6 86bd

conv3.bias f4 [32]
-0.023207372 -0.04308642 0.05817972 -0.043232042 -0.005971953 0.023062956 0.009997223 0.017506957
0.08664999 -0.011890222 0.00640165 -0.05631356 0.037912745 0.07954183 0.040118873 0.03978661
-0.030061893 -0.046563014 -0.049457233 0.05249232 0.006989642 -0.0053262617 0.056367032 -0.03534802
0.0668219 -0.03951153 0.01781975 0.06611513 -0.023688156 -0.021164164 0.0618729 0.027330892
00000000: 631d bebc 637b 30bd dc4d 6e3d 1514 31bd
00000010: 5fb0 c3bb 86ee bc3c 64cb 233c c06a 8f3c
00000020: 8d75 b13d 35cf 42bc efc4 d13b 0ca9 66bd
00000030: 654a 1b3d d4e6 a23d b053 243d 49f7 223d
00000040: 5c44 f6bc dcb8 3ebd ab93 4abd 3002 573d
00000050: 5e09 e53b ec87 aebb 1ee1 663d 16c9 10bd
00000060: ecd9 883d d8d6 21bd b9fa 913c 5f67 873d
00000070: aa0d c2bc 7860 adbc 706e 7d3d 09e5 df3c

fc.weight f4 [2, 1568]
0.01037943 -0.018780718 0.0070732227 -0.028338317 -0.017526474 0.01613503 0.018047128 -0.01503203
0.0031339733 0.01883667 -0.018109186 -0.0059525208 0.0043077893 -0.005888017 -0.012672678 -0.02238198
0.0040410543 -0.028155625 0.008152071 0.009617178 -0.02091696 0.018044462 0.0006253429 -0.022412756
-0.012751701 -0.020213792 0.017019302 -0.02153537 -0.017394496 -0.022980478 -5.2416435e-05 0.0035081876
0.0039108205 0.012584749 0.01518184 -0.0070159207 0.011836327 -0.00048903486 0.002416452 -0.021217806
0.007933336 -0.012348615 0.019536933 -0.010586289 0.018056646 -0.013779986 -0.0020850743 0.008107176
0.009205597 -0.0018769552 0.015528633 -0.021071276 -0.02060444 0.009463519 0.022966003 -0.0035633293
-0.018567417 -0.018683126 -0.00864413 -0.009277099 0.010409633 0.0009165071 0.012099143 -0.011231052
0.014560939 0.016410934 -0.0062260637 0.011006521 -0.017213408 0.015708555 -0.022710238 0.010172398
-0.024940096 0.014473507 -0.013838996 0.009263988 -0.011664845 -0.00933665 -0.0014314614 -0.014807694
0.010809243 0.0069079814 0.009307501 -0.023441821 -0.00074281084 -0.014804665 -0.018504284 -0.0056615584
0.0076920036 0.0018418594 -0.026893811 0.005664852 0.011324744 -0.028924175 -0.025679952 0.010580309
0.0078153405 -0.022749456 -0.028853923 -0.0148257725 0.0086296955 -0.02645007 -0.029783705 0.008915781
-0.009192171 0.007269242 0.0083218375 0.018553631 0.015642345 0.0030438376 0.011264304 -0.020241225
-0.0120369345 0.0077950414 0.001545169 -0.0064948294 0.017187709 -0.025910895 -0.014297038 0.0046443287
-0.011638412 -0.006464297 0.0057245516 -0.0010553576 -0.0041170456 0.011069551 -0.030681126 -0.000728476
0.014307102 -0.012773863 -0.0282167 -0.0020902504 -0.023115471 -0.012489964 0.012491604 0.012005686
0.012423239 0.0050680176 -0.0022156334 -0.010666065 0.016526006 0.002227372 0.0009960125 -0.010491458
0.008255994 0.01610994 0.018084483 -0.023933712 0.0099597825 0.009543188 -0.0021414813 -0.017944075
0.016217427 0.0015053289 0.010716101 0.007833407 0.010472802 -0.015110287 -0.017014548 0.014753697
-0.012787935 -0.021607041 -0.008156279 -0.00048979453 -0.014219179 -0.0036932714 0.022173852 -0.0023344387
0.0061625117 -0.010666744 -0.0017259074 -0.006478076 0.014554219 0.017096456 -0.009186628 -0.00015121044
-0.023163863 0.01756156 0.016087217 0.006875337 0.024941111 -0.00030834935 -0.00025442353 -0.015784515
0.020469885 0.023631535 0.0006215998 -0.013632374 -0.020993823 -0.0109639205 0.015657367 -0.01879922
0.012123998 0.012643133 0.019267883 -0.015037342 -0.023059465 0.0050003044 -0.0031336353 0.0023811972
-0.029261937 -0.0053149215 0.0018800325 -0.02026257 -0.016342849 -0.014517572 -0.021877317 0.0059425756
0.005410267 0.02297565 -0.013402716 0.013698217 0.011034828 -0.023557348 -0.013066624 0.018191455
-0.009106224 -0.0026882477 -0.023119519 0.0032293147 0.008756852 0.012861261 -0.009565212 -0.017598696
0.006014907 0.016323566 -0.029314985 0.00884532 0.01281557 -0.024150934 0.018943103 -0.022634657
0.0065121865 -0.023625642 0.0054451004 0.012262601 -0.029629355 -0.014637684 0.01568815 0.0024488324
0.010929424 0.008945374 0.00524526 -0.027200155 -0.0128389625 -0.009764698 -0.010236223 0.017357815
-0.016047375 0.003816717 -0.013478911 -0.010811786 0.016733207 -0.02564211 0.006683843 -0.0076737255
00000000: 7c0e 2a3c 05da 99bc 7ec6 e73b c225 e8bc
00000010: ae93 8fbc 9c2d 843c 92d7 933c e748 76bc
00000020: 5963 4d3b 5c4f 9a3c b759 94bc 5d0d c3bb
00000030: 5b28 8d3b 44f0 c0bb 10a1 4fbc 6a5a b7bc
00000040: d26a 843b a0a6 e6bc 4490 053c 5e91 1d3c
00000050: 0b5a abbc fbd1 933c 0dee 233a f59a b7bc
00000060: 83ec 50bc 6597 a5bc 106c 8b3c f26a b0bc
00000070: e77e 8ebc 8e41 bcbc b8d9 5bb8 9fe9 653b
00000080: 5726 803b 4330 4e3c 41bd 783c cfe5 e5bb
00000090: 27ed 413c 9332 00ba 565d 1e3b f7d0 adbc
000000a0: d3fa 013c d851 4abc eb0b a03c 1d72 2dbc
000000b0: 88eb 933c 73c5 61bc bea5 08bb f6d3 043c
000000c0: 13d3 163c 2a04 f6ba cf6b 7e3c ab9d acbc
000000d0: a4ca a8bc e00c 1b3c 3323 bc3c bf86 69bb
000000e0: b21a 98bc 5b0d 99bc 1ca0 0dbc f9fe 17bc
000000f0: 2a8d 2a3c c041 703a 7c3b 463c 7202 38bc
00000100: 0191 6e3c 3970 863c 0204 ccbb b254 343c
00000110: 2203 8dbc 3aaf 803c d20a babc 21aa 263c
00000120: 2c4f ccbc 4a22 6d3c f5bc 62bc fbc7 173c
00000130: e81d 3fbc c0f8 18bc e09f bbba f89b 72bc
00000140: 4019 313c 595c e23b 7d7e 183c 1009 c0bc
00000150: 31b9 42ba 448f 72bc 4c96 97bc 9884 b9bb
00000160: 340d fc3b 8c6a f13a 6950 dcbc 39a0 b93b
00000170: 6b8b 393c 64f2 ecbc c35e d2bc 0859 2d3c
00000180: ea0b 003c 115d babc 105f ecbc cce7 72bc
00000190: 9163 0d3c d1ad d8bc f5fc f3bc 7f13 123c
000001a0: c29a 16bc d232 ee3b 5158 083c c9fd 973c
000001b0: 6024 803c 1f7b 473b ea8d 383c edd0 a5bc
000001c0: 9036 45bc 8c6d ff3b 4587 ca3a 94d2 d4bb
000001d0: 3dcd 8c3c 1643 d4bc 203e 6abc 742f 983b
000001e0: 0aaf 3ebc 74d2 d3bb 0595 bb3b ed53 8aba
000001f0: 48e8 86bb 105d 353c fc56 fbbc 32f7 3eba
00000200: 5668 6a3c 7749 51bc b526 e7bc 95fc 08bb
00000210: a85c bdbc b5a2 4cbc 96a9 4c3c 7fb3 443c
00000220: d78a 4b3c 9d11 a63b 2934 11bb b8c0 2ebc
00000230: 8c61 873c 1af9 113b a28c 823a 5de4 2bbc
00000240: 2644 073c fef8 833c e925 943c a210 c4bc
00000250: 5b2e 233c 085b 1c3c 1858 0cbb 74ff 92bc
00000260: 69da 843c 754e c53a 9692 2f3c b157 003c
00000270: 1e96 2b3c 2391 77bc 1862 8bbc 7eb9 713c
00000280: 7d84 51bc 4001 b1bc eaa1 05bc 8e65 00ba
00000290: 8ff7 68bc d00a 72bb f0a5 b53c 62fd 18bb
000002a0: e5ee c93b 91c3 2ebc d837 e2ba 0a46 d4bb
000002b0: d274 6e3c de0d 8c3c 8383 16bc 3e8e 1eb9
000002c0: 24c2 bdbc 43dd 8f3c 57c9 833c 824a e13b
000002d0: 4d51 cc3c f3a9 a1b9 2664 85b9 874e 81bc
000002e0: 76b0 a73c ec96 c13c dbf2 223a 525a 5fbc
000002f0: 3dfb abbc 04a2 33bc e143 803c d200 9abc
00000300: bca3 463c 2525 4f3c aed7 9d3c 2f5f 76bc
00000310: 34e7 bcbc 98d9 a33b ad5d 4dbb dc0d 1c3b
00000320: bbb6 efbc cb28 aebb 6c6b f63a b0fd a5bc
00000330: 70e1 85bc 1cdb 6dbc 0f38 b3bc f0b9 c23b
00000340: 9c48 b13b 6e37 bc3c 1197 5bbc 7d6e 603c
00000350: 6ccb 343c 57fb c0bc 6515 56bc 3f06 953c
00000360: 4632 15bc 502d 30bb 2565 bdbc e9a2 533b
00000370: e678 0f3c 0ab8 523c 68b7 1cbc 242b 90bc
00000380: b218 c53b 00b9 853c fb25 f0bc f6eb 103c
00000390: 66f8 513c 2ed8 c5bc 912e 9b3c 516c b9bc
000003a0: 2e64 d53b 908a c1bc d06c b23b 14e9 483c
000003b0: 43b9 f2bc e6d2 6fbc 6f84 803c 977c 203b
000003c0: 5411 333c 9e8f 123c 6ee0 ab3b dcd2 debc
000003d0: 835a 52bc 1dfc 1fbc d5b5 27bc fa31 8e3c
000003e0: c975 83bc e321 7a3b a6d6 5cbc eb23 31bc
000003f0: 1414 893c 670f d2bc 2404 db3b e073 fbbb

fc.bias f4 [2]
0.006822902 0.030105537
00000000: a692 df3b e39f f63c
